API/BUMI-API/model.tflite (tflite, 57856 bytes, 17 tensors)

context_encoder_1/proj_layer/bias f4 [8]
0.015245158 0.0062118964 -0.00016152229 -0.014528813 0.013082689 0.004643703 0.0067938 -0.008493797
00000000: d4c6 793c 2a8d cb3b 4f5e 29b9 420a 6ebc
00000010: c658 563c 342a 983b 869e de3b 9129 0bbc

context_encoder_1/hidden_layer1/bias f4 [32]
0.004365404 -0.00886981 0.0010032882 0.00403987 -0.0024918334 -0.0042281416 0.0 0.0106613375
-0.0021766159 0.005704806 -0.0034122092 0.014754302 0.0010811911 -0.0014415529 -0.002977005 -0.011723074
-0.0023107356 0.0057449453 0.0053565516 -0.0043340493 -0.0020594713 0.012265817 0.0020994032 -0.0031254278
-0.010996488 0.002705433 0.0016791266 0.0 -0.0015022168 0.021244282 -0.0058805784 0.0013852239
00000000: aa0b 8f3b ae52 11bc c480 833a e360 843b
00000010: 074e 23bb 398c 8abb 0000 0000 e4ac 2e3c
00000020: 8ea5 0ebb 62ef ba3b 5f9f 5fbb 07bc 713c
00000030: c1b6 8d3a 7df2 bcba db19 43bb 2312 40bc
00000040: b66f 17bb 1840 bc3b 0386 af3b a404 8ebb
00000050: 32f8 06bb 91f6 483c 2496 093b fad3 4cbb
00000060: 9d2a 34bc a24d 313b 2416 dc3a 0000 0000
00000070: 08e6 c4ba 7d08 ae3c deb1 c0bb 6790 b53a

context_encoder_1/hidden_layer0/bias f4 [32]
-0.009890409 -0.0033866349 0.0 -3.2276857e-06 0.005903299 -0.00035883195 -0.0005319819 0.009785611
0.0 0.0026067768 0.0077241124 0.0039484696 -0.0025680873 0.0030927188 0.0016601048 0.005649686
-0.0031102723 -0.0095727425 -0.0057931123 0.0 0.0014712873 -0.00056478503 0.004092382 0.005040869
-0.0015141635 0.0 -0.00046052804 -1.3920257e-05 0.0014707769 0.0026660713 -0.0064161723 0.00036364456
00000000: 620b 22bc 4ef2 5dbb 0000 0000 389b 58b6
00000010: 7670 c13b 9c21 bcb9 b374 0bba d453 203c
00000020: 0000 0000 75d6 2a3b 8d1a fd3b 2a62 813b
00000030: 5b4d 28bb 36af 4a3b e097 d93a 0021 b93b
00000040: b6d5 4bbb fed6 1cbc 26d4 bdbb 0000 0000
00000050: 36d8 c03a 150e 14ba 6319 863b e02d a53b
00000060: e576 c6ba 0000 0000 0773 f1b9 0c8b 69b7
00000070: 15c7 c03a 41b9 2e3b c13e d2bb 8ca7 be39

context_encoder_1/feature_group_encoder_3/conv1d_7/bias f4 [32]
-0.0009223824 -0.0031893868 -0.00028523064 -0.00039229586 -0.007898979 -0.0034165538 -0.0017951984 0.00061552215
-0.006278673 0.0017235937 0.0077462527 0.0022550358 -0.0028235994 -0.0025157402 0.00067873206 -0.003581189
0.0005713802 -0.0013905739 -0.0031581211 0.003547581 0.0022748217 0.0038061594 -5.8677456e-06 -0.0041798144
-6.5231805e-05 0.0035167944 0.0011441922 -0.0035945065 -0.0024797784 0.0034271593 -0.0020440693 0.004939013
00000000: 09cc 71ba 0805 51bb 028b 95b9 0fad cdb9
00000010: b86a 01bc 43e8 5fbb dd4c ebba fe5a 213a
00000020: 54bd cdbb 35ea e13a 47d4 fd3b 39c9 133b
00000030: 230c 39bb 1edf 24bb f0ec 313a 62b2 6abb
00000040: adc8 153a eb43 b6ba 7bf8 4ebb 887e 683b
00000050: 2d15 153b c270 793b 8de3 c4b6 d3f6 88bb
00000060: 0fcd 88b8 057a 663b b8f8 953a d091 6bbb
00000070: c783 22bb 319a 603b cbf5 05bb 72d7 a13b

context_encoder_1/feature_group_encoder_3/conv1d_6/bias f4 [16]
-0.0012622125 0.00055204623 -0.0010239407 -0.0004886426 -0.0007357721 -0.002141892 0.0006956602 -0.00046711686
-0.00021764233 0.0009797605 -0.00030015822 -0.00015559117 0.0006366142 -0.0006273795 0.0018888992 0.00060480984
00000000: d370 a5ba 32b7 103a c035 86ba 4018 00ba
00000010: d4e0 40ba fc5e 0cbb f75c 363a 5de7 f4b9
00000020: eb36 64b9 4f6b 803a 8e5e 9db9 3026 23b9
00000030: 75e2 263a ba76 24ba f194 f73a 1a8c 1e3a

context_encoder_1/feature_group_encoder_3/context_movie_genreembedding_layer/embeddings f4 [11, 4]
0.37025753 0.5903955 0.39011604 0.35826066 -0.08961452 -0.3938614 0.029260337 0.1358673
-0.41154382 0.021669552 0.16429347 -0.70468956 0.12200957 0.7077774 -0.03625317 0.34810123
-0.7355436 0.191337 0.2666692 0.6415437 -0.55988735 -0.18492512 0.06375966 -0.19114493
0.4320641 0.19394149 0.38062286 -0.5406837 -0.33163887 0.3054226 0.58530015 0.021234721
-0.2835235 -0.2486308 -0.28760138 0.13770449 0.6940868 -0.41346604 0.9606739 -0.33486173
-0.34097195 -0.14453791 -0.13828252 0.04650569
00000000: 6592 bd3e 2924 173f 4abd c73e f16d b73e
00000010: d187 b7bd 34a8 c9be 60b3 ef3c cc20 0b3e
00000020: dfb5 d2be 5884 b13c 8c3c 283e 8966 34bf
00000030: 27e0 f93d e630 353f 347e 14bd 533a b23e
00000040: 964c 3cbf d9ed 433e de88 883e 353c 243f
00000050: c754 0fbf 035d 3dbe 6d94 823d 7fbb 43be
00000060: 8137 dd3e 9998 463e 00e1 c23e 3f6a 0abf
00000070: 92cc a9be 5a60 9c3e 3bd6 153f 70f4 ad3c
00000080: fe29 91be 1399 7ebe 7d40 93be 6802 0d3e
00000090: acaf 313f d2b1 d3be baee 753f ff72 abbe
000000a0: e093 aebe bf01 14be ef99 0dbe c07c 3e3d

context_encoder_1/feature_group_encoder_2/conv1d_5/bias f4 [32]
0.0041658045 0.0 -0.0021100966 -0.0031921347 0.00065522356 0.00023941664 -0.00019717107 0.0
0.0031089636 2.4750521e-05 -0.0014707084 0.0001868778 0.0018617321 -7.591791e-05 -0.0011148432 1.3878734e-05
0.00022593387 0.003531708 0.00532408 -0.00015400408 0.0019937903 -0.0005855584 -5.1501953e-05 -0.0023957277
0.0 2.325037e-05 -0.0033981118 0.0020002269 -0.0031761518 -0.004351287 0.0020419862 -0.0012190078
00000000: 4d81 883b 0000 0000 8c49 0abb 2233 51bb
00000010: 4fc3 2b3a ea0b 7b39 b5bf 4eb9 0000 0000
00000020: c1bf 4b3b 579f cf37 c9c4 c0ba a1f4 4339
00000030: 5d05 f43a 1e36 9fb8 ee1f 92ba b5d8 6837
00000040: a9e8 6c39 3a74 673b 9f75 ae3b 287c 21b9
00000050: 40aa 023b 2980 19ba cd03 58b8 a401 1dbb
00000060: 0000 0000 ca09 c337 dbb2 5ebb 3d16 033b
00000070: fc26 50bb 3e95 8ebb d8d2 053b 1dc7 9fba

context_encoder_1/feature_group_encoder_2/conv1d_4/bias f4 [16]
0.0 0.0027636867 -0.00043379562 -3.706259e-05 -1.7721051e-05 0.0015645847 -0.0014735702 -0.0006584897
-2.9150226e-05 0.00017096687 0.005685491 -0.0006573648 -9.930634e-05 0.0 0.00066726375 0.0016106678
00000000: 0000 0000 f81e 353b 106f e3b9 a773 1bb8
00000010: aba7 94b7 c012 cd3a d024 c1ba 7f9e 2cba
00000020: a287 f4b7 9245 3339 5b4d ba3b 0153 2cba
00000030: af42 d0b8 0000 0000 50eb 2e3a 0b1d d33a

context_encoder_1/feature_group_encoder_2/context_movie_idembedding_layer/embeddings f4 [200, 8]
-0.39012685 0.01094554 -0.34200913 0.61833686 0.37715456 -0.5065132 -0.13766612 -0.03731355
0.31349674 -0.032443736 0.04936536 -0.47451454 0.65585726 0.22823974 0.13769408 -0.09899636
0.49678624 -0.13277082 0.13932173 0.19530824 -0.3340402 0.09954033 -0.14581074 0.56774116
0.65312165 0.07511956 0.0031693617 0.06982407 -0.17822015 0.41086763 -0.16017811 0.14610933
-0.27929044 0.38091454 0.08597804 0.14039595 -0.11413127 -0.23165411 -0.1734284 -0.12568985
-0.17454039 -0.2475305 0.11151359 0.16466315 0.56341606 0.14798497 -0.32169163 0.42918387
0.20416676 -0.020219082 -0.39449358 0.48283356 0.1975944 -0.0922356 0.66006064 0.11255788
0.19837858 0.19986077 -0.23983829 -0.034786664 -0.094758146 -0.50442344 -0.44388783 0.16972087
0.45737183 0.34484965 -0.18476042 0.058990307 -0.33480424 0.36579174 0.05954073 -0.49135378
0.09324012 0.11274471 -0.09640379 0.20739418 -0.17805223 0.16833898 -0.5461005 -0.10875449
0.11007612 -0.13888252 0.1129384 0.027473876 0.17046572 0.041905016 0.10111077 -0.35823414
0.16912143 -0.049031537 -0.034157243 -0.21873768 -0.33389553 -0.3269202 -0.014756 -0.27264753
0.57297415 -0.10587902 0.094750896 0.4045061 0.07628027 0.06880971 -0.04947873 -0.41632697
0.26114056 0.29549205 -0.049242165 0.19576016 -0.3825541 -0.071864136 0.090075344 0.3292686
0.24329914 0.46413922 0.21581487 0.3383111 0.6423123 -0.07855605 0.18067344 0.3005271
0.32050502 0.42632127 -0.23806402 -0.011846713 0.1265269 0.04320236 0.018301813 -0.32572508
0.0011947419 0.58172274 0.5050121 -0.34305057 -0.09214387 -0.5824182 -0.45655802 0.36519098
0.012674285 0.34414405 0.4657381 0.5868986 0.2219502 0.040105384 -0.39891267 0.32750782
0.4258461 -0.011108558 -0.29343992 0.33180037 -0.13210534 -0.12976797 0.050157495 0.29018855
-0.36446542 -0.4512391 0.04961942 0.368872 -0.09728036 0.6736555 -0.06039145 -0.22892712
0.24985026 -0.17432997 -0.5086917 0.19114996 -0.28999037 -0.04968176 0.21870138 0.42673644
-0.08196267 0.49610206 0.37486953 -0.2629399 -0.08471992 0.21190412 -0.15307029 0.37806064
0.52113235 -0.6440742 0.21735701 0.24947749 0.54248047 -0.16600944 -0.10089304 0.25733513
0.48140147 -0.6335457 0.6587699 0.13941626 0.29539406 0.20472595 0.23025584 0.3317647
-0.26075962 0.13652313 -0.10342424 -0.076854326 -0.44610298 -0.2835517 -0.06651927 0.41009274
0.4115716 0.040342677 -0.04059676 0.06334696 -0.32734424 -0.020351715 0.4165621 0.35834134
0.19801474 -0.006929474 0.43784067 0.14259441 -0.43550014 0.0036009576 -0.07117385 0.17157982
-0.5429032 0.017168973 -0.2746406 0.056953482 -0.28383654 0.19288099 -0.118926354 -0.4835856
-0.5150725 0.06285969 -0.27159163 -0.04172833 -0.17311749 -0.03020696 0.08544331 0.26167002
-0.15695184 -0.5562743 0.069230966 0.32513157 0.05169325 -0.45559287 -0.11563768 0.40307027
0.04188021 0.3050959 -0.4310625 0.088712454 0.119387776 0.4287858 -0.12004192 -0.16649024
0.026635235 0.22750449 0.066221915 0.318708 0.37240294 -0.15614429 -0.13245307 0.49156827
00000000: b5be c7be ec54 333c d21b afbe 534b 1e3f
00000010: 671a c13e d9aa 01bf 59f8 0cbe 18d6 18bd
00000020: a582 a03e b9e3 04bd 5533 4a3d 92f3 f2be
00000030: 43e6 273f aeb7 693e adff 0c3e 9bbe cabd
00000040: c45a fe3e 13f5 07be 5baa 0e3e e2fe 473e
00000050: 5107 abbe cddb cb3d 694f 15be 7c57 113f
00000060: fb32 273f 49d8 993d 11b5 4f3b ecff 8e3d
00000070: 587f 36be 3e5d d23e bb05 24be af9d 153e
00000080: 28ff 8ebe 3b07 c33e 4115 b03d f5c3 0f3e
00000090: a8bd e9bd bc36 6dbe 3797 31be d7b4 00be
000000a0: b7ba 32be a378 7dbe 3d61 e43d 759d 283e
000000b0: 093c 103f 5f89 173e c4b4 a4be fdbd db3e
000000c0: 1711 513e 7da2 a5bc 10fb c9be f635 f73e
000000d0: 3056 4a3e 05e6 bcbd bcf9 283f bf84 e63d
000000e0: c123 4b3e 4da8 4c3e 2b98 75be 767c 0ebd
000000f0: 8f10 c2bd e521 01bf 4445 e3be 4fcb 2d3e
00000100: a42c ea3e 2290 b03e d631 3dbe d29f 713d
00000110: 766b abbe 0e49 bb3e fbe0 733d b992 fbbe
00000120: adf4 be3d b3e6 e63d 5a6f c5bd 245f 543e
00000130: 5353 36be 0e61 2c3e 3ecd 0bbf adba debd
00000140: 976f e13d 3837 0ebe 3f4c e73d e510 e13c
00000150: 918e 2e3e 98a4 2b3d 2a13 cf3d 776a b7be
00000160: 2b2e 2d3e 4bd5 48bd 77e8 0bbd c5fc 5fbe
00000170: 5bf4 aabe 1662 a7be 26c3 71bc 7598 8bbe
00000180: 6fae 123f 1ad7 d8bd c20c c23d 6c1b cf3e
00000190: d538 9c3d 1bec 8c3d 35aa 4abd cf28 d5be
000001a0: 37b4 853e bc4a 973e 27b2 49bd 5a75 483e
000001b0: 22de c3be 812d 93bd 6c79 b83d e595 a83e
000001c0: 6923 793e a8a3 ed3e 93fe 5c3e 1d37 ad3e
000001d0: 946e 243f ffe1 a0bd 7502 393e b0de 993e
000001e0: 3c19 a43e c846 da3e 0ec7 73be b718 42bc
000001f0: 4590 013e f5f4 303d afed 953c 70c5 a6be
00000200: e398 9c3a c8eb 143f 7948 013f 53a4 afbe
00000210: edb5 bcbd 5c19 15bf f9c1 e9be 50fa ba3e
00000220: cea7 4f3c a633 b03e 3975 ee3e fd3e 163f
00000230: ea46 633e 8b45 243d 483e ccbe 1baf a73e
00000240: 8008 da3e ab00 36bc c23d 96be bde1 a93e
00000250: 9f46 07be e5e1 04be f271 4d3d 9893 943e
00000260: 369b babe d008 e7be bc3d 4b3d cadc bc3e
00000270: ed3a c7bd b074 2c3f 065d 77bd df6b 6abe
00000280: bfd8 7f3e 8e83 32be 9f39 02bf d1bc 433e
00000290: 9e79 94be 1a7f 4bbd 41f3 5f3e 337d da3e
000002a0: 0bdc a7bd 1701 fe3e e6ee bf3e 0fa0 86be
000002b0: a381 adbd 65fd 583e 75be 1cbe 2a91 c13e
000002c0: ee68 053f 0ce2 24bf d692 5e3e 0777 7f3e
000002d0: 00e0 0a3f 61fe 29be 03a1 cebd 6ec1 833e
000002e0: 417a f63e 0d30 22bf 25a5 283f 23c3 0e3e
000002f0: e43d 973e aea3 513e 30c8 6b3e 10dd a93e
00000300: 4982 85be b8cc 0b3e 17d0 d3bd cd65 9dbd
00000310: 9c67 e4be b02d 91be 413b 88bd adf7 d13e
00000320: 83b9 d23e 5d3e 253d ca48 26bd 0dbc 813d
00000330: aa99 a7be a4b8 a6bc a147 d53e 8478 b73e
00000340: 60c4 4a3e a410 e3bb a72c e03e 4504 123e
00000350: e0f9 debe 0bfe 6b3b 98c3 91bd 9fb2 2f3e
00000360: b4fb 0abf f2a5 8c3c b19d 8cbe 0e48 693d
00000370: 0653 91be 9882 453e a98f f3bd 8898 f7be
00000380: cbdb 03bf 95bc 803d 0f0e 8bbe 53eb 2abd
00000390: b645 31be 9674 f7bc e7fc ae3d 9df9 853e
000003a0: fcb7 20be fe67 0ebf f7c8 8d3d a577 a63e
000003b0: 4dbc 533d 7843 e9be 73d3 ecbd 3a5f ce3e
000003c0: 958a 2b3d 8835 9c3e 39b4 dcbe e0ae b53d
000003d0: 9481 f43d d089 db3e 8ad8 f5bd 6b7c 2abe
000003e0: 2332 da3c f0f6 683e 5b9f 873d b22d a33e
000003f0: 99ab be3e 4ae4 1fbe c7a1 07be d6ae fb3e

context_encoder_1/hidden_layer0/MatMul f4 [32, 64]
-0.042018134 -0.16636932 0.02706917 -0.06924957 -0.030574942 -0.061665196 0.24399674 0.22015768
-0.22486208 0.20319974 0.03674423 -0.050761975 0.022036832 0.127994 0.20036277 -0.17479795
-0.11605358 -0.0135408165 -0.029120674 -0.19693297 -0.23611182 -0.09574909 0.17168468 -0.24805483
-0.15014374 -0.09397465 -0.032269504 -0.013502388 0.062210426 0.06095501 -0.12303549 0.0062663346
0.070648246 0.20074695 -0.07728807 0.10351313 -0.10570489 0.22979257 0.2167258 -0.018274017
0.13575952 -0.19524352 0.033208665 0.054875948 0.16621245 0.019731095 -0.069361575 0.081410885
-0.027794346 0.023616282 0.009344086 0.09482449 0.03585474 0.1353056 -0.008598317 0.14115159
-0.17947744 -0.014617396 0.13182053 -0.049347036 -0.054035474 -0.018720692 -0.08634958 0.03898485
0.15016308 -0.15026158 -0.07855136 -0.1462746 0.25005597 0.06358803 -0.22645247 -0.07638419
0.03644135 0.07248607 0.10148835 0.17956385 0.1419758 0.14379986 0.057824 0.0043463856
0.12188696 0.18766263 -0.038527917 0.13556266 -0.2163891 0.010286724 0.15687339 0.105759226
0.0025647879 0.016242594 -0.14439476 0.12036464 -0.19603191 0.2077014 0.24914987 0.24320725
0.21993603 -0.18674193 0.08655354 0.07899141 0.042053334 0.09333647 0.21394521 0.24020243
0.1397494 0.06773906 -0.043968406 -0.17853682 0.19097634 0.2452006 -0.009557797 -0.013721876
-0.0056214468 0.22549348 0.24087118 0.2184247 0.14989318 -0.117003344 -0.14535093 0.22316998
0.17821549 -0.05803423 0.1835931 -0.23184088 0.20898142 0.07634257 -0.1384775 -0.16052994
-0.07843512 -0.234003 -0.10729694 0.027603269 -0.093051136 0.20465362 0.090399206 0.24726468
-0.14755017 0.10453874 -0.05286777 0.1292693 -0.15308642 0.106365085 -0.1542244 0.20162117
0.2483905 -0.0428499 -0.124789 -0.010067761 -0.14236236 -0.08978671 -0.17575741 -0.09846598
0.2195077 -0.05563414 -0.022325158 -0.07476103 0.1108737 -0.18233418 -0.15250427 -0.21337432
0.064676166 0.1839999 0.100304246 -0.19056356 0.10811567 -0.10099077 -0.06962252 -0.058509827
0.18405938 -0.13000757 -0.22525585 -0.22176766 -0.073218584 -0.14344966 -0.06528127 -0.047278523
0.1578871 -0.02955842 0.14968336 -0.21330649 -0.049604475 0.14350557 0.18456012 0.105309606
-0.06380993 0.117607474 -0.017781079 -0.1608904 -0.20390916 0.07459718 0.20966917 -0.15740633
-0.1078707 -0.17257744 -0.2435448 -0.23414332 -0.18166143 0.12625334 -0.09598023 0.09391004
-0.013897061 -0.122056246 -0.2229411 0.21498546 -0.21994454 -0.20572245 0.19239563 0.21525717
0.03674525 -0.14543203 0.030269425 -0.08168793 -0.11531588 0.24604566 0.2454409 0.21292025
-0.13901442 0.008259833 0.085953705 -0.20270231 0.24173856 0.09863361 -0.048628926 0.17101191
-0.081802964 -0.09933847 -0.060730815 0.0058174133 -0.040530484 0.104237676 -0.09391141 0.0015480504
0.11639335 -0.15964821 -0.132852 -0.109464735 0.029149354 -0.18545246 0.046430826 -0.22477922
-0.006233572 0.08432436 -0.04447472 -0.15906864 0.07514307 -0.06411266 0.18881297 0.21111111
-0.17318511 -0.13249414 -0.16345286 0.2016136 -0.05638788 -0.1938848 0.046202183 0.025211427
00000000: 351b 2cbd b85c 2abe 2ac0 dd3c b8d2 8dbd
00000010: 4d78 fabc a594 7cbd 48da 793e 0471 613e
00000020: 3f42 66be 9813 503e 1e81 163d caeb 4fbd
00000030: 9686 b43c dc10 033e e62b 4d3e 3cfe 32be
00000040: 80ad edbd 4dda 5dbc 7b8e eebc cca8 49be
00000050: 4cc7 71be 1918 c4bd 1cce 2f3e 1602 7ebe
00000060: 48bf 19be c875 c0bd 072d 04bd 1f39 5dbc
00000070: 5cd0 7e3d f6ab 793d 08fa fbbd d355 cd3b
00000080: 07b0 903d 9c90 4d3e 3549 9ebd b1fe d33d
00000090: ce7b d8bd be4e 6b3e 5eed 5d3e 64b3 95bc
000000a0: 8b04 0b3e ebed 47be cf05 083d 9ac5 603d
000000b0: 9933 2a3e 1ba3 a13c 710d 8ebd c0ba a63d
000000c0: f8b0 e3bc ef76 c13c f017 193c 5833 c23d
000000d0: 6bdc 123d 8d8d 0a3e f5df 0cbc 0b8a 103e
000000e0: efc8 37be cd7d 6fbc f6fb 063e 1e20 4abd
000000f0: 4d54 5dbd 235c 99bc 0cd8 b0bd 94ae 1f3d
00000100: 5ac4 193e 2cde 19be 89df a0bd 02c9 15be
00000110: 5607 803e 713a 823d 28e3 67be 506f 9cbd
00000120: 8643 153d 9473 943d 20d9 cf3d 96df 373e
00000130: 1b62 113e 4540 133e dcd8 6c3d 206c 8e3b
00000140: df9f f93d a22a 403e 73cf 1dbd f0d0 0a3e
00000150: 1b95 5dbe a689 283c 6ba3 203e 4b98 d83d
00000160: 0016 283b 300f 853c 38dc 13be bd81 f63d
00000170: 97bc 48be adaf 543e 2521 7f3e 520b 793e
00000180: e936 613e 4739 3fbe fb42 b13d 40c6 a13d
00000190: 1e40 2c3d 3127 bf3d 7414 5b3e a0f7 753e
000001a0: 771a 0f3e c7ba 8a3d 3718 34bd 5bd2 36be
000001b0: 4d8f 433e de15 7b3e 4e98 1cbc b8d1 60bc
000001c0: 1d34 b8bb c3e7 663e efa6 763e b9aa 5f3e
000001d0: 997d 193e 739f efbd e0d6 14be ac86 643e
000001e0: 1f7e 363e 4db5 6dbd d4ff 3b3e b267 6dbe
000001f0: 3aff 553e 7e59 9c3d 0ccd 0dbe f661 24be
00000200: 98a2 a0bd 7c9e 6fbe 80be dbbd 4020 e23c
00000210: 9891 bebd b890 513e 3823 b93d f432 7d3e
00000220: 6417 17be 6818 d63d e08b 58bd 2c5f 043e
00000230: b0c2 1cbe f0d5 d93d 00ed 1dbe c875 4e3e
00000240: 145a 7e3e 6083 2fbd 6091 ffbd 40f3 24bc
00000250: 70c7 11be 18e2 b7bd c0f9 33be 88a8 c9bd
00000260: a0c6 603e a0e0 63bd 40e3 b6bc 501c 99bd
00000270: c011 e33d d0b5 3abe 142a 1cbe cc7e 5abe
00000280: f074 843d 786a 3c3e 506c cd3d 1823 43be
00000290: c06b dd3d 40d4 cebd 4096 8ebd 00a8 6fbd
000002a0: 107a 3c3e b420 05be 78a9 66be 1017 63be
000002b0: a0f3 95bd 78e4 12be 30b2 85bd 20a7 41bd
000002c0: 28ad 213e 8024 f2bc 9846 193e 046d 5abe
000002d0: 102e 4bbd 20f3 123e 54fd 3c3e 90ac d73d
000002e0: c8ae 82bd 30dc f03d a0a9 91bc 74c0 24be
000002f0: 90cd 50be 68c6 983d 84b3 563e 202f 21be
00000300: 50eb dcbd 24b8 30be cf63 79be 44c3 6fbe
00000310: 7405 3abe 8e48 013e 4891 c4bd e853 c03d
00000320: 80b0 63bc a0f8 f9bd ac4a 64be 2625 5c3e
00000330: 2439 61be e8a8 52be 5c03 453e 606c 5c3e
00000340: 3082 163d 22ec 14be 96f7 f73c 004c a7bd
00000350: bb2a ecbd 65f3 7b3e dc54 7b3e c407 5a3e
00000360: cc59 0ebe 4054 073c 7f08 b03d 3291 4fbe
00000370: 508a 773e 6b00 ca3d 202f 47bd bf1d 2f3e
00000380: 5088 a7bd f871 cbbd e0c0 78bd 00a0 be3b
00000390: 4b03 26bd 907a d53d a054 c0bd f4e7 ca3a
000003a0: a35f ee3d d27a 23be 5b0a 08be 0c2f e0bd
000003b0: a0ca ee3c 40e7 3dbe 402e 3e3d 862c 66be
000003c0: fe42 ccbb 40b2 ac3d 202b 36bd e4e2 22be
000003d0: 9ce4 993d 804d 83bd 3058 413e 832d 583e
000003e0: 7057 31be 8bac 07be 3060 27be cc73 4e3e
000003f0: faf6 66bd bd89 46be 803e 3d3d 3288 ce3c

context_encoder_1/hidden_layer1/MatMul f4 [32, 32]
-0.23644222 0.19148074 0.2161884 0.19123438 0.2855893 -0.2707203 -0.26114106 0.06858757
0.04326263 0.08791541 -0.08018649 0.21405874 0.13151331 -0.29077452 -0.009263657 0.17874816
-0.28023195 -0.15684067 -0.036518145 0.040891796 0.23735383 -0.067844324 0.29461667 0.2559967
0.005368459 0.19600794 0.25259995 -0.1606685 0.16866356 0.1872545 0.004236277 -0.15958257
-0.10592735 0.27857783 0.007816613 -0.072084054 0.0033861538 0.27339002 -0.2682612 0.011793507
-0.036622226 0.048861522 0.2716508 0.15226991 0.0063785985 -0.0031963475 0.1903911 0.30175084
0.14664827 0.18503717 -0.29705554 0.050613344 -0.18284662 -0.1482439 -0.27966478 0.2954354
0.03690311 -0.30077946 -0.08414917 -0.23700824 0.25676477 0.15032972 -0.083678015 0.24407382
-0.04509356 0.30061746 0.29508206 0.04130182 -0.040924735 -0.19747226 0.17272143 0.24938662
-0.047937155 0.042098794 0.123232186 -0.29206145 0.0875319 -0.23479798 -0.26158184 0.28521904
-0.13762234 0.093226805 -0.0014645054 0.21434996 -0.2262228 -0.009778084 -0.20384891 0.19293582
0.23045357 -0.29858476 0.10313682 -0.12828587 0.18523979 -0.2221294 0.037313025 -0.29498273
0.29954925 -0.15379578 -0.26736295 -0.19842498 -0.0035373878 0.03471808 -0.01649199 0.063323215
0.2692187 0.13695218 -0.29121637 0.2832147 -0.057077754 0.20682617 0.15072554 -0.11951397
-0.24088567 -0.029082501 0.01668977 0.22969112 0.0054542534 0.2750941 -0.017396497 -0.1668598
-0.21511 0.18504608 0.19447307 -0.009571077 0.2660298 0.24671707 0.15069361 0.19808778
0.27937457 0.29861388 -0.20637107 0.20785502 -0.19095744 0.027995259 -0.30665722 0.07254967
-0.17110364 -0.29817113 0.15742548 0.21098693 0.090147234 -0.046976294 0.027390806 0.17049408
0.15791218 -0.24727054 -0.08244573 0.11887288 -0.2562656 -0.24963778 -0.22645432 0.14721215
0.24284364 0.23072037 -0.0602046 -0.032910243 -0.1659771 0.014329643 0.070238836 0.03592528
0.00062163075 0.28998014 -0.20347834 0.23877546 0.23779048 0.093063034 -0.26702625 0.091537
0.027384609 0.3016071 0.08867305 0.30225295 0.08483656 -0.08736633 0.0944795 -0.054423537
-0.26596043 0.030169802 0.055685792 0.26499376 0.196253 -0.15096529 -0.07895499 0.058289576
0.018163694 -0.16830409 -0.2745483 -0.25027058 -0.13111044 -0.000358659 -0.036083203 -0.29647955
0.1954132 -0.04856351 -0.14193104 -0.2997288 0.13829175 0.043114096 -0.07121095 -0.21170622
0.027775437 -0.09135237 0.0035911798 -0.101568714 -0.008713186 0.09120694 -0.105598494 -0.19985387
-0.064119905 -0.12186818 0.20206812 -0.26863188 0.14246124 0.24378636 -0.30038217 -0.17914458
0.17696449 0.18282598 -0.11784731 -0.0011720955 -0.17514116 0.23363718 -0.2746387 -0.2442432
-0.27326068 -0.09074805 -0.2199206 -0.08488508 0.23972054 0.030434668 -0.032070708 0.22063965
-0.21132998 0.087614775 0.17710362 -0.064541385 0.16073632 0.017728047 0.25783157 0.29840815
-0.06795854 0.0013503014 -0.30308425 0.08324757 -0.21460196 -0.15733537 0.22207564 -0.16709553
-0.19878466 0.11721045 -0.2284573 -0.23560321 0.25185868 -0.03311536 0.28324044 0.30676255
00000000: e91d 72be 8713 443e 7e60 5d3e f2d2 433e
00000010: c338 923e da9b 8abe 48b4 85be a477 8c3d
00000020: 2834 313d ff0c b43d d138 a4bd 3732 5b3e
00000030: 6dab 063e 66e0 94be 98c6 17bc c209 373e
00000040: 907a 8fbe d79a 20be 0d94 15bd 287e 273d
00000050: e20c 733e f7f1 8abd ffd7 963e 0012 833e
00000060: e6e9 af3b 4eb6 483e c854 813e 4986 24be
00000070: 24b6 2c3e a5bf 3f3e 78d0 8a3b 9d69 23be
00000080: 70f0 d8bd c1a1 8e3e 4011 003c cea0 93bd
00000090: 3cea 5d3b c7f9 8b3e 8859 89be 8e39 413c
000000a0: 3001 16bd 0523 483d d015 8b3e a5ec 1b3e
000000b0: 9003 d13b d079 51bb e2f5 423e 167f 9a3e
000000c0: f72a 163e 627a 3d3e aa17 98be f04f 4f3d
000000d0: 253c 3bbe 40cd 17be 3930 8fbe 4f43 973e
000000e0: b727 173d c4ff 99be 6656 acbd 4ab2 72be
000000f0: ac76 833e 09f0 193e 615f abbd 7dee 793e
00000100: 06b4 38bd 88ea 993e ff14 973e 192c 293d
00000110: b2a0 27bd 2b36 4abe e3dd 303e 355f 7f3e
00000120: c059 44bd c96f 2c3d 2861 fc3d 1489 95be
00000130: ed43 b33d e26e 70be 0eee 85be 3b08 923e
00000140: dfec 0cbe b2ed be3d a6f4 bfba 8e7e 5b3e
00000150: f3a6 67be 4234 20bc c5bd 50be f890 453e
00000160: 05fc 6b3e 1ae0 98be 6639 d33d 5f5d 03be
00000170: 80af 3d3e e475 63be 8bd5 183d fa07 97be
00000180: 855e 993e a47c 1dbe cce3 88be eb2f 4bbe
00000190: 85d3 67bb 8c34 0e3d 361a 87bc 9aaf 813d
000001a0: 09d7 893e 313d 0c3e 501a 95be 8401 913e
000001b0: 5dca 69bd 3dca 533e cc57 1a3e bec3 f4bd
000001c0: bcaa 76be 6d3e eebc fcb8 883c 2634 6b3e
000001d0: 98b9 b23b 22d9 8c3e 1983 8ebc 4cdd 2abe
000001e0: cc45 5cbe b87c 3d3e f323 473e 02d0 1cbc
000001f0: 0f35 883e 66a3 7c3e 6d4f 1a3e 86d7 4a3e
00000200: 2f0a 8f3e ebe3 983e f052 53be f2d7 543e
00000210: 598a 43be 5056 e53c 2d02 9dbe ec94 943d
00000220: cb35 2fbe e3a9 98be 2534 213e f50c 583e
00000230: 1d9f b83d 376a 40bd af62 e03c 0096 2e3e
00000240: bbb3 213e 7d34 7dbe 4fd9 a8bd a073 f33d
00000250: 3f35 83be 0ca1 7fbe a4e3 67be c8be 163e
00000260: 01ac 783e f641 6c3e 1999 76bd e4cc 06bd
00000270: e7f5 29be e1c6 6a3c 61d9 8f3d 6326 133d
00000280: eff4 223a 4778 943e a05c 50be 8e81 743e
00000290: 597f 733e d597 be3d aab7 88be c077 bb3d
000002a0: b055 e03c 3f6c 9a3e 379a b53d e6c0 9a3e
000002b0: cabe ad3d 1eed b2bd 787e c13d 37eb 5ebd
000002c0: f72b 88be a926 f73c c916 643d 43ad 873e
000002d0: 8cf6 483e a596 1abe 27b3 a1bd 0dc1 6e3d
000002e0: 07cc 943c e857 2cbe 9891 8cbe 7723 80be
000002f0: d141 06be 650a bcb9 fbcb 13bd 2bcc 97be
00000300: 661a 483e 88ea 46bd 5f56 11be 0e76 99be
00000310: 5a9c 0d3e 6898 303d 0cd7 91bd 84c9 58be
00000320: 5089 e33c f416 bbbd 005a 6b3b 4203 d0bd
00000330: c0c1 0ebc b4ca ba3d 0644 d8bd 7ea6 4cbe
00000340: 4c51 83bd 0696 f9bd f2ea 4e3e 1e8a 89be
00000350: 5ce1 113e 22a3 793e b1cb 99be ad71 37be
00000360: 2e36 353e bc36 3b3e ee59 f1bd 00a1 99ba
00000370: 3458 33be 963e 6f3e 729d 8cbe e41a 7abe
00000380: d3e8 8bbe 1dda b9bd de32 61be 3bd8 adbd
00000390: 4d79 753e 2052 f93c 935c 03bd 5cef 613e
000003a0: e366 58be 606f b33d a75a 353e 462e 84bd
000003b0: 1098 243e 693a 913c 8002 843e f4c8 983e
000003c0: d92d 8bbd 99fc b03a dc2d 9bbe b47d aa3d
000003d0: 9ec0 5bbe 861c 21be cc67 633e 171b 2bbe
000003e0: 358e 4bbe 080c f03d b6f0 69be f841 71be
000003f0: 9ff3 803e f9a3 07bd e404 913e fb0f 9d3e

context_encoder_1/proj_layer/MatMul f4 [8, 32]
-0.12366487 -0.16622822 -0.24969669 0.3525479 -0.078883685 0.08024595 0.030981243 -0.22034451
-0.2756622 -0.09600658 -0.36887494 -0.13938053 0.2714658 0.07216552 -0.23384374 -0.3098104
0.32402855 0.34505257 -0.32450488 -0.1787198 -0.28827375 0.12474869 0.21907194 -0.14277388
-0.36727038 0.31811577 -0.3296696 -0.031900764 0.05288905 0.29871553 -0.06610409 0.33631793
-0.32107505 0.019170836 -0.2582791 -0.025993183 -0.27642778 0.38151455 -0.10130128 0.3275603
0.31074125 -0.2148537 0.18907617 0.24961327 -0.34775615 -0.120242156 -0.09571256 -0.25316113
-0.067213245 0.2749113 0.35104072 -0.31128725 0.048519574 -0.15429622 -0.08060393 -0.38339382
0.35345542 -0.16165788 -0.35446987 0.22061533 -0.014905102 0.2760214 0.07521533 -0.24950723
0.1738605 0.2567251 -0.23485233 -0.158857 0.27520123 -0.32164145 -0.121967524 -0.21384256
-0.14722721 0.05568575 0.04476276 0.09535082 0.37920383 0.037903726 0.08250815 -0.18180315
-0.20816182 -0.15064582 0.09276125 -0.046709456 -0.26093513 0.38670573 0.20987046 0.10953918
0.28525937 -0.21081558 -0.15865144 0.26568532 -0.30107304 -0.22593158 -0.15537472 -0.35530677
-0.29701483 0.12564205 0.35805073 0.31270018 0.36007524 -0.026074594 0.021851778 -0.35898125
0.093033254 -0.023541652 0.35608086 -0.23293154 -0.24015363 -0.22559685 -0.08174959 -0.23672678
0.16066049 -0.10548249 0.08322989 0.37735072 0.0696095 -0.35643947 -0.2360654 -0.28145456
0.147938 -0.11518872 -0.33662653 0.25417393 0.13114233 -0.26755595 0.17323199 0.045454297
-0.24203226 -0.1701911 0.16563323 0.3171937 0.010693742 -0.37559098 0.29260153 0.32555586
0.3145999 0.071804546 0.1277098 0.090995215 0.18643065 0.1644032 0.37856993 -0.313051
-0.08756037 0.02307252 -0.2814977 0.21922442 0.034314297 0.2039366 -0.20530137 0.21953587
-0.38403133 -0.30703545 0.15028128 0.11149627 0.22723962 0.33680424 -0.23013508 0.1779169
0.16537762 -0.26058507 0.3524852 0.3433059 0.3147902 -0.12744395 0.10336867 0.2714888
0.10594677 0.3371211 0.007638468 0.1639034 0.30597758 0.1947128 0.21733901 -0.18952046
0.2654565 -0.14291637 0.2517815 -0.2845762 0.18082966 0.325113 -0.059137035 -0.0791273
-0.26507393 -0.0012915374 0.18924664 -0.13850416 -0.34742063 -0.14471284 0.014140359 -0.33828554
0.045462545 -0.18002544 0.32862884 -0.38363576 0.05641389 -0.25545043 -0.13201898 0.09848856
-0.18563208 0.08748596 0.19941445 0.3315302 0.114128605 -0.055229962 0.13088372 -0.27587786
-0.28768128 0.26208162 -0.037481878 0.030214436 0.29874894 -0.07197821 -0.056660365 0.15240872
-0.28836787 -0.20437352 -0.3455941 0.32370627 0.13275863 -0.03705414 0.05866386 0.015188486
0.011899064 -0.03879712 -0.108808324 -0.18906136 0.35121888 -0.35209754 -0.16692956 -0.032822184
0.25266522 -0.23205744 0.3627498 -0.12805039 0.2767987 -0.047470238 -0.04858017 0.28489897
0.29177952 -0.21931124 0.3791166 -0.016826527 0.05966507 -0.27854028 -0.1588688 0.2136285
-0.17862743 -0.3494938 0.23171973 0.08071354 -0.09544955 0.2775404 -0.012028881 -0.022669395
00000000: 0244 fdbd bb37 2abe 7db0 7fbe 2981 b43e
00000010: c58d a1bd fd57 a43d 60cc fd3c fea1 61be
00000020: 9923 8dbe 199f c4bd 2ddd bcbe c5b9 0ebe
00000030: 91fd 8a3e 84cb 933d bc74 6fbe 789f 9ebe
00000040: 12e7 a53e bbaa b03e 8125 a6be 5302 37be
00000050: 9e98 93be 3e7c ff3d 6554 603e 5133 12be
00000060: dd0a bcbe 12e0 a23e 74ca a8be 60aa 02bd
00000070: 30a2 583d 3ef1 983e 9561 87bd dd31 ac3e
00000080: f363 a4be 280c 9d3c 283d 84be a8ef d4bc
00000090: f187 8dbe e055 c33e 0c77 cfbd fcb5 a73e
000000a0: 7a19 9f3e 9c02 5cbe 2f9d 413e 9f9a 7f3e
000000b0: 180d b2be 8541 f6bd f204 c4bd 569e 81be
000000c0: 19a7 89bd 2dc1 8c3e 9cbb b33e 0b61 9fbe
000000d0: 76bc 463d d4ff 1dbe ac13 a5bd 324c c4be
000000e0: 1cf8 b43e a589 25be 137d b5be fce8 613e
000000f0: 8734 74bc ad52 8d3e 7f0a 9a3d d37e 7fbe
00000100: 7d08 323e 7971 833e 217d 70be 69ab 22be
00000110: 2de7 8c3e 30ae a4be 1cca f9bd 8bf9 5abe
00000120: bbc2 16be be16 643d 2859 373d 4a47 c33d
00000130: 0127 c23e f040 1b3d 08fa a83d 9b2a 3abe
00000140: 5f28 55be e642 1abe 9cf9 bd3d 6a52 3fbd
00000150: 4a99 85be 4bfe c53e 48e8 563e 1456 e03d
00000160: 840d 923e 0ae0 57be 8675 22be e807 883e
00000170: 3f26 9abe 9c5a 67be 8d1a 1fbe c5ea b5be
00000180: 5412 98be 4fa8 003e 6d52 b73e 3d1a a03e
00000190: c85b b83e 639a d5bc 8002 b33c 64cc b7be
000001a0: 3888 be3d 6cda c0bc 3b50 b63e 9b85 6ebe
000001b0: d5ea 75be dc02 67be 546c a7bd 8168 72be
000001c0: 2f84 243e 3407 d8bd 6f74 aa3d 1d34 c13e
000001d0: 6d8f 8e3d 3c7f b6be 21bb 71be d01a 90be
000001e0: 0f7d 173e 10e8 ebbd 505a acbe 1623 823e
000001f0: 2d4a 063e 18fd 88be ba63 313e 492e 3a3d
00000200: 4ed7 77be 9346 2ebe c29b 293e 3667 a23e
00000210: ce34 2f3c 764d c0be decf 953e 42af a63e
00000220: 3d13 a13e 430e 933d 5cc6 023e b35b ba3d
00000230: ade7 3e3e 5059 283e ebd3 c13e 3848 a0be
00000240: da52 b3bd 9502 bd3c 7720 90be 5e7c 603e
00000250: 268d 0c3d c2d4 503e 863a 52be 03ce 603e
00000260: c19f c4be c033 9dbe 56e3 193e 2858 e43d
00000270: 81b1 683e 9b71 ac3e 88a8 6bbe d92f 363e
00000280: c058 293e 686b 85be f178 b43e cac5 af3e
00000290: 2e2c a13e ab80 02be f4b2 d33d 9400 8b3e
000002a0: 9ffa d83d 239b ac3e 1d4c fa3b 4bd6 273e
000002b0: 18a9 9c3e cb62 473e 1e8e 5e3e a711 42be
000002c0: eae9 873e ab58 12be 81e9 803e f9b3 91be
000002d0: 692b 393e 3675 a63e ad39 72bd 7e0d a2bd
000002e0: c5b7 87be ce48 a9ba dfc9 413e 09d4 0dbe
000002f0: 1ee1 b1be 9a2f 14be f7ac 673c c333 adbe
00000300: ef36 3a3d 9758 38be 0a42 a83e e86b c4be
00000310: 4012 673d 66ca 82be fc2f 07be 5fb4 c93d
00000320: 5616 3ebe d72b b33d 4d33 4c3e 54be a93e
00000330: 42bc e93d d038 62bd 6206 063e dd3f 8dbe
00000340: f64a 93be 902f 863e 9986 19bd 4484 f73c
00000350: 9ff5 983e 5069 93bd b314 68bd 0811 1c3e
00000360: f4a4 93be 4b47 51be b6f1 b0be d4bc a53e
00000370: e1f1 073e 15c6 17bd 8449 703d 21d9 783c
00000380: 4bf4 423c bbe9 1ebd e6d6 debd 4d99 41be
00000390: f6d2 b33e 2146 b4be 95ef 2abe 8e70 06bd
000003a0: 565d 813e 77a0 6dbe 57ba b93e a41f 03be
000003b0: 8fb8 8d3e 2770 42bd 00fc 46bd 47de 913e
000003c0: 2064 953e 2093 60be 921b c23e c9d7 89bc
000003d0: 5c63 743d d59c 8ebe 81ae 22be 6ec1 5a3e
000003e0: 1cea 36be daf0 b2be f047 6d3e 244d a53d
000003f0: 0e7b c3bd c619 8e3e c914 45bc 2bb5 b9bc

label_movie_idembedding_layer/embedding_lookup f4 [200, 8]
-0.41178134 0.0843246 -0.034412887 0.23753613 0.024132047 0.16383953 -0.5285058 0.40108907
0.49295262 -0.0012916201 0.33760434 0.09152064 0.35739636 0.037531644 0.4099291 0.2569018
0.1257237 0.35752073 0.29607797 -0.20068857 -0.46392992 0.3438365 0.17910562 0.2934421
-0.10576711 0.13148478 0.42325044 0.24087484 0.6043985 0.0020917417 0.17290719 -0.17176527
0.20558736 -0.1018638 0.2425267 0.2518271 -0.28881288 -0.2650274 0.33678603 0.13238458
0.60963726 0.53963065 0.1968216 0.09758563 -0.017886043 0.48628163 0.27542996 -0.36702564
0.051240593 -0.22637029 0.5907139 -0.2875431 -0.32567084 -0.4192167 0.49830347 -0.0010698698
-0.4280884 -0.1523193 -0.50681704 0.3123622 -0.36324072 0.37377873 -0.3413085 -0.09094912
-0.04575283 0.48410916 0.10656063 -0.5928028 0.25560117 0.60528445 0.3843044 0.523938
-0.28272995 0.009894068 0.08087084 0.5842666 0.4322866 -0.29774368 0.14720011 -0.5948272
0.018965611 0.28079626 0.36156023 -0.066259846 -0.16989803 0.09821771 -0.24119647 -0.08686188
-0.32030797 0.10154927 -0.14205246 0.2855128 -0.23788887 0.061673496 -0.20660505 0.65995723
0.21070744 -0.35415924 -0.30695567 -0.41501737 0.21614249 0.059343852 -0.326089 0.22187433
0.17084503 -0.69070935 -0.479149 -0.171926 0.038609333 -0.18534908 -0.0872844 0.14501166
0.6643334 0.29235625 0.21729304 -0.30484003 0.1322582 0.10344121 -0.3151649 -0.038974542
0.36607808 0.5465858 0.2590161 0.27883694 0.009623543 0.025188668 -0.0862512 -0.024155002
0.37132576 -0.5291338 0.11627116 0.36488807 -0.20640016 0.29038906 -0.20407006 0.080091365
-0.4496635 0.35972676 0.2200423 -0.06534604 -0.24815632 -0.09341958 0.2715126 0.033146515
0.19545951 0.67476845 -0.41470447 -0.05303434 0.38413465 0.030413114 0.5074739 -0.41708508
-0.23674099 0.53096807 -0.4840499 -0.5161561 0.47192863 -0.1460352 0.47955996 0.3275891
0.1364496 0.12847595 -0.4372663 0.20528466 -0.017354516 -0.09523677 0.5509194 -0.31811276
-0.09900565 0.1736404 -0.47178006 0.049942166 0.049414124 0.05920443 0.28316978 0.30097592
0.12931922 0.18354538 -0.5881042 -0.011495458 0.5575531 -0.18448195 -0.08077784 -0.6026681
0.07547355 -0.12912795 0.40233883 -0.17240573 0.30090564 0.42384064 0.051031478 0.18427615
0.30312786 0.317255 -0.4613163 0.08576351 -0.39930975 -0.4156506 0.479855 0.23829558
-0.21809109 0.18888578 -0.20735316 0.16714874 0.18371248 0.099762745 0.03042305 -0.30369055
0.3549957 0.07711896 -0.37342122 -0.32034385 0.19549546 -0.5445046 0.13333355 -0.01308131
0.15608247 -0.0016793086 -0.088256255 0.2295087 -0.17500795 -0.251403 -0.45456767 0.27159956
0.0742442 0.096919976 -0.3585409 0.37530532 0.12845576 -0.27139238 -0.004283455 -0.017555289
-0.63323367 -0.04662288 -0.30644006 0.44446295 0.62917876 -0.26257074 0.20612112 -0.30124092
-0.022513205 -0.27888915 -0.22919159 -0.18433371 -0.16883421 -0.44720146 -0.106283195 0.38704717
0.39777988 0.42344108 -0.22307664 -0.01832941 -0.31054458 -0.37805557 0.26823366 0.46634585
00000000: 01d5 d2be 60b2 ac3d 87f4 0cbd ac3c 733e
00000010: 92b0 c53c 8dc5 273e 284c 07bf 8c5b cd3e
00000020: 4964 fc3e 944b a9ba 7ada ac3e 2c6f bb3d
00000030: a8fc b63e c8ba 193d 3ae2 d13e a288 833e
00000040: b7bd 003e f50c b73e 8897 973e 4e81 4dbe
00000050: 3988 edbe 560b b03e 7767 373e 0b3e 963e
00000060: 6d9c d8bd f2a3 063e 48b4 d83e e5a7 763e
00000070: dcb9 1a3f 9a15 093b 950e 313e 3ce3 2fbe
00000080: 7e85 523e f89d d0bd eb58 783e 7bef 803e
00000090: 48df 93be acb1 87be 386f ac3e d38f 073e
000000a0: 3011 1c3f 3c25 0a3f 9a8b 493e fada c73d
000000b0: c085 92bc e8f9 f83e 2805 8d3e c9ea bbbe
000000c0: a8e1 513d 9dcd 67be 0739 173f d938 93be
000000d0: 54be a6be 92a3 d6be a221 ff3e e03a 8cba
000000e0: 672e dbbe 97f9 1bbe c3be 01bf f0ed 9f3e
000000f0: b0fa b9be ed5f bf3e fdbf aebe 8843 babd
00000100: 5267 3bbd 28dd f73e 763c da3d edc1 17bf
00000110: 28de 823e ecf3 1a3f 8cc3 c43e cd20 063f
00000120: fbc1 90be bb1a 223c 9c9f a53d 7f92 153f
00000130: ab54 dd3e dc71 98be a0bb 163e 9846 18bf
00000140: c55d 9b3c 87c4 8f3e 6c1e b93e 3eb3 87bd
00000150: c0f9 2dbe 5e26 c93d 35fc 76be a4e4 b1bd
00000160: 68ff a3be 10f9 cf3d 3376 11be bc2e 923e
00000170: 2499 73be 599d 7c3d 4690 53be f5f2 283f
00000180: b1c3 573e 5c54 b5be 4b29 9dbe 287d d4be
00000190: 7554 5d3e 8a12 733d 23f5 a6be 0633 633e
000001a0: 00f2 2e3e 54d2 30bf 0553 f5be 5f0d 30be
000001b0: d224 1e3d 26cc 3dbe 2ac2 b2bd f07d 143e
000001c0: c111 2a3f b8af 953e 1182 5e3e fe13 9cbe
000001d0: b26e 073e fcd8 d33d 4b5d a1be c5a3 1fbd
000001e0: 966e bb3e 0ced 0b3f c29d 843e b7c3 8e3e
000001f0: 11ac 1d3c 7758 ce3c 78a4 b0bd b6e0 c5bc
00000200: 691e be3e 5075 07bf 931f ee3d 9cd2 ba3e
00000210: 905a 53be e0ad 943e bef7 50be f106 a43d
00000220: 4b3a e6be 1b2e b83e c552 613e 25d4 85bd
00000230: b11c 7ebe c452 bfbd b303 8b3e a4c4 073d
00000240: 8a26 483e a0bd 2c3f 2554 d4be 893a 59bd
00000250: 4cad c43e ec24 f93c cfe9 013f 2d8c d5be
00000260: 3b6c 72be 86ed 073f 63d5 f7be ce22 04bf
00000270: a1a0 f13e 408a 15be e288 f53e c2b9 a73e
00000280: 72b9 0b3e 338f 033e 5ee1 dfbe 2436 523e
00000290: 0f2b 8ebc 7f0b c3bd 0e09 0d3f addf a2be
000002a0: 79c3 cabd cace 313e 288d f1be 2890 4c3d
000002b0: 7766 4a3d 5880 723d a1fb 903e 8419 9a3e
000002c0: 426c 043e 52f3 3b3e ff8d 16bf 7257 3cbc
000002d0: cdbb 0e3f d6e8 3cbe da6e a5bd 7548 1abf
000002e0: e091 9a3d 1e3a 04be 5bff cd3e 218b 30be
000002f0: 4e10 9a3e a401 d93e 6206 513d e3b2 3c3e
00000300: 9333 9b3e 3f6f a23e a631 ecbe c7a4 af3d
00000310: 5472 ccbe 28d0 d4be 8eaf f53e c203 743e
00000320: 4553 5fbe 466b 413e 6354 54be 0a29 2b3e
00000330: 201f 3c3e 6950 cc3d c339 f93c 547d 9bbe
00000340: ffc1 b53e 8cf0 9d3d 1131 bfbe 1c04 a4be
00000350: f62f 483e a764 0bbf 9788 083e fe52 56bc
00000360: 15d4 1f3e 3f1c dcba b2bf b4bd 5404 6b3e
00000370: 4935 33be e5b7 80be 18bd e8be 190f 8b3e
00000380: 580d 983d fb7d c63d ac92 b7be 0528 c03e
00000390: e889 033e f1f3 8abe 3a5c 8cbb 1cd0 8fbc
000003a0: 9a1b 22bf a2f7 3ebd b6e5 9cbe a690 e33e
000003b0: dc11 213f ac6f 86be 6a11 533e 403c 9abe
000003c0: 9d6d b8bc 8fca 8ebe 33b1 6abe fac1 3cbe
000003d0: e0e2 2cbe 97f7 e4be 01ab d9bd 0c2b c63e
000003e0: cea9 cb3e 45cd d83e 346e 64be 8f27 96bc
000003f0: b3ff 9ebe 8090 c1be ec55 893e e2c4 ee3e

context_encoder_1/feature_group_encoder_3/conv1d_6/Conv1D f4 [16, 1, 4, 4]
0.100207336 0.26017874 0.2414235 -0.1800908 0.121444084 0.038676735 0.1183228 -0.0075830277
0.21574673 -0.13960342 -0.02716159 0.091348045 0.054258756 0.21766275 -0.043214384 -0.20780216
0.116989836 0.08323575 0.06131862 0.22172481 -0.10235289 0.17198041 0.23268205 0.22759618
0.1968914 -0.055961534 -0.073133856 -0.23253544 -0.1436905 0.13978578 0.08786511 0.13743651
0.024441177 0.13304366 -0.13605523 -0.107913874 0.055805728 -0.27197114 0.23105167 -0.066179484
-0.16592734 0.095957525 -0.178478 -0.13283208 0.078330316 -0.082430586 -0.052486286 0.1972092
0.09594659 0.0711113 0.10775583 0.092404224 0.16534339 -0.14304242 -0.12108572 -0.19598587
-0.12922221 0.14495812 0.22325793 0.047032103 0.2536768 0.18163466 -0.15744972 0.16396046
0.24476516 -0.12606867 -0.27313253 -0.21482056 -0.18291768 0.10392182 -0.23212402 -0.02012338
0.17905816 -0.2563233 0.040590852 0.17723353 0.029326191 0.23042068 0.11508376 0.17043753
-0.17493989 0.16167875 -0.0028988358 -0.25568354 -0.25684154 0.19140325 -0.24887605 -0.09107046
-0.041749526 -0.26149553 0.13829535 0.042173002 0.25798273 -0.06636395 -0.19567929 -0.19251548
0.08891954 -0.18507017 -0.19760862 0.01465668 0.15736258 -0.03643986 -0.004244769 -0.2166524
-0.17864656 0.15899912 0.12641034 0.26011297 0.037296727 -0.07048697 0.19831602 -0.046249207
0.07097488 -0.009477728 -0.05936463 -0.25483477 -0.067066185 0.118739635 0.041449104 -0.0034296978
-0.20516501 -0.04321041 -0.23083137 0.13364103 -0.051142707 -0.24296327 -0.13655639 -0.10170265
-0.15531549 0.064005025 -0.2150322 0.24665461 0.26250106 0.00851025 0.18922538 -0.15302113
-0.08482688 -0.2080694 -0.13333277 -0.25425884 -0.016321989 -0.0001855355 0.13482133 -0.038613673
0.09323944 0.2663867 -0.039894696 0.18248828 -0.012050933 0.2571163 0.20706342 0.17144051
-0.01938473 -0.015979365 0.19058171 -0.13599318 -0.2686737 0.1946281 -0.13279614 0.0038992132
-0.2322332 0.25253624 -0.19844544 0.18498416 0.078002855 0.24527313 0.25554836 0.014460285
0.112548284 -0.10815297 0.19585001 -0.20076182 -0.11509109 -0.05179362 0.111202724 -0.040005524
0.23691963 0.03899071 0.1329808 0.06486933 0.12957115 -0.10984986 0.14623575 0.1937968
0.07609161 0.2426397 0.252223 0.1386059 0.17154054 -0.098822586 -0.21876583 0.23144227
-0.08104244 -0.27047345 0.06255366 0.04056655 -0.0008999459 0.2727658 0.25855544 -0.21417983
-0.16053435 0.01608021 0.07929096 0.110159256 -0.22953467 -0.24690346 -0.13246365 0.10553395
-0.006775605 -0.09235539 0.07202566 -0.02247417 -0.06935308 -0.23497872 0.07760948 0.1463652
-0.24088836 -0.042150464 -0.08710031 -0.2408019 0.1788689 -0.05933076 0.025332486 0.083278984
-0.25392732 0.20112537 0.044539943 -0.02339728 -0.010205993 -0.075162314 -0.18728258 0.2089558
0.044140007 0.18476802 -0.21676722 -0.14435261 0.09999577 0.07128337 0.22319107 -0.26371533
0.092724375 -0.25082606 0.11590617 0.15529199 -0.16955647 0.073803864 0.27188292 0.019920513
-0.0601503 0.24548309 0.25964642 -0.054383073 -0.11562268 0.2048763 -0.044394087 -0.064360484
00000000: 8139 cd3d 2636 853e b937 773e b969 38be
00000010: adb7 f83d 7f6b 1e3d 3953 f23d 0c7b f8bb
00000020: b6ec 5c3e 33f4 0ebe fc81 debc af14 bb3d
00000030: 6e3e 5e3d fce2 5e3e 9101 31bd 17ca 54be
00000040: 5e98 ef3d 8177 aa3d 3c29 7b3d d40b 633e
00000050: 649e d1bd a21b 303e 3444 6e3e f90e 693e
00000060: e69d 493e ec37 65bd 34c7 95bd c51d 6ebe
00000070: 9a23 13be 0124 0f3e 9ff2 b33d 28bc 0c3e
00000080: dd38 c83c 993c 083e 1052 0bbe f301 ddbd
00000090: 8c94 643d cd3f 8bbe cf98 6c3e 1c89 87bd
000000a0: dbe8 29be 6185 c43d f0c2 36be 2205 08be
000000b0: a56b a03d 5ed1 a8bd dcfb 56bd 35f1 493e
000000c0: a57f c43d cda2 913d 17af dc3d 6d3e bd3d
000000d0: c74f 293e b679 12be cafb f7bd 85b0 48be
000000e0: d452 04be e76f 143e ba9d 643e bca4 403d
000000f0: ede1 813e 70fe 393e 803a 21be 40e5 273e
00000100: b8a3 7a3e 2518 01be 07d8 8bbe ecf9 5bbe
00000110: c64e 3bbe f7d4 d43d ebb1 6dbe c9d9 a4bc
00000120: 065b 373e cf3c 83be 9842 263d b57c 353e
00000130: 7b3d f03c 66f3 6b3e 09b1 eb3d 2d87 2e3e
00000140: 7123 33be 1d8f 253e 65fa 3dbb f4e8 82be
00000150: bc80 83be 37ff 433e 5dd9 7ebe 2683 babd
00000160: 8d01 2bbd bee2 85be 4c9d 0d3e 99bd 2c3d
00000170: 5016 843e d3e9 87bd 2760 48be c722 45be
00000180: 731b b63d 0983 3dbe ea59 4abe 9222 703c
00000190: a823 213e f641 15bd b417 8bbb 20da 5dbe
000001a0: 20ef 36be aad0 223e b671 013e 872d 853e
000001b0: 74c4 183d 795b 90bd 5b13 4b3e cf6f 3dbd
000001c0: 475b 913d 7948 1bbc 5428 73bd b479 82be
000001d0: ff59 89bd c42d f33d 89c6 293d c8c4 60bb
000001e0: c716 52be 66fd 30bd 0f5f 6cbe 32d9 083e
000001f0: 047b 51bd 5dcb 78be 70d5 0bbe 7b49 d0bd
00000200: 060b 1fbe 1115 833d 6731 5cbe 0793 7c3e
00000210: 8a66 863e 936e 0b3c 4cc4 413e 92b1 1cbe
00000220: b7b9 adbd 2510 55be 6388 08be 372e 82be
00000230: b1b5 85bc 4e8c 42b9 9a0e 0a3e 5f29 1ebd
00000240: 52f4 be3d d663 883e 9f68 23bd 35de 3a3e
00000250: 4771 45bc bfa4 833e 6f08 543e 1a8e 2f3e
00000260: bacc 9ebc 28e7 82bc da27 433e cc41 0bbe
00000270: 998f 89be 974c 473e b6fb 07be f189 7f3b
00000280: 8ace 6dbe 6e4c 813e 4835 4bbe 7d6c 3d3e
00000290: f6bf 9f3d e128 7b3e 3cd7 823e d5ea 6c3c
000002a0: b77f e63d 4e7f ddbd e88c 483e 8294 4dbe
000002b0: e1b4 ebbd 8c25 54bd 41be e33d d5dc 23bd
000002c0: 0f9b 723e b9b4 1f3d 1e2c 083e 36da 843d
000002d0: 4dae 043e f7f8 e0bd d3be 153e ab72 463e
000002e0: ebd5 9b3d 8b76 783e 6023 813e b4ee 0d3e
000002f0: 53a8 2f3e 7f63 cabd 2604 60be 34ff 6c3e
00000300: 94f9 a5bd 7f7b 8abe 221c 803d 1c29 263d
00000310: 59ea 6bba f5a7 8b3e 6161 843e f551 5bbe
00000320: 1e63 24be a5ba 833c 4d63 a23d 2d9b e13d
00000330: 230b 6bbe 43d4 7cbe 8da4 07be 2f22 d83d
00000340: e505 debb d324 bdbd 3082 933d c01b b8bc
00000350: fd08 8ebd 439e 70be b8f1 9e3d c2e0 153e
00000360: 70ab 76be f7a5 2cbd a661 b2bd c694 76be
00000370: 6929 373e d004 73bd 1386 cf3c 2c8e aa3d
00000380: c302 82be cff3 4d3e 846f 363d a7ab bfbc
00000390: 0a37 27bc b3ee 99bd 01c7 3fbe 82f8 553e
000003a0: 27cc 343d d433 3d3e 3af8 5dbe 2cd1 13be
000003b0: 95ca cc3d 04fd 913d 338c 643e b205 87be
000003c0: 47e6 bd3d 466c 80be 3760 ed3d dd04 1f3e
000003d0: 36a0 2dbe 7b26 973d 3d34 8b3e 5830 a33c
000003e0: 2960 76bd eb5f 7b3e 60f0 843e c9c0 5ebd
000003f0: 95cb ecbd 18cb 513e 93d6 35bd 6ecf 83bd

context_encoder_1/feature_group_encoder_3/conv1d_7/Conv1D f4 [32, 1, 4, 16]
-0.08265266 -0.056259498 -0.027018204 0.110891975 0.048441727 -0.101855315 -0.16194324 0.12602739
0.12567687 0.01273952 0.10457516 0.05211228 -0.14052749 0.011575412 0.117030725 0.084464975
-0.027509674 -0.078763954 -0.10735704 -0.088850506 -0.07089403 -0.1529182 0.0701766 0.10525405
-0.0006549131 0.0077969213 -0.15252355 -0.12336311 0.036918297 -0.07345596 0.0065533044 0.016418476
0.1054988 0.13541609 0.09050272 -0.10252885 -0.15603884 0.16361737 0.15307175 0.15046136
0.10870656 0.15391068 -0.1435698 -0.17594358 0.0654668 -0.021791147 -0.12723975 -0.14608178
0.041795637 0.09880283 0.1627783 -0.07900407 0.07283176 0.11652679 -0.021376299 -0.013135456
-0.037378427 -0.0848098 -0.15565696 0.14498854 0.108993545 -0.09904571 -0.146688 0.02290666
-0.106909186 0.16914135 -0.11642367 -0.07083932 -0.0765115 0.04411977 -0.06135348 -0.08098575
0.08210425 0.09339057 -0.11165529 -0.0034232591 -0.16643941 0.11632256 -0.07074193 0.11861663
-0.03398273 0.085634425 0.008732269 0.03276279 0.04784268 -0.14129682 -0.07194605 -0.13926172
0.14344044 -0.13219903 0.1628438 -0.038720425 0.15360002 0.15166353 0.038001515 -0.012222277
-0.08418725 -0.018429345 0.098097295 0.068421 0.10552676 -0.1713076 -0.1576094 -0.024793062
-0.03364464 -0.07600017 -0.16771498 0.010622519 0.1381919 -0.06590628 0.025952114 -0.0009432
-0.04581424 -0.12948512 0.12455759 0.17471343 0.17655854 -0.03604339 0.0064952583 -0.114487804
-0.018458605 0.11996712 -0.10314396 0.025014123 -0.08296421 -0.023580758 -0.080048814 0.039085705
0.015323468 0.13303237 0.09150953 0.009775282 0.062874086 0.15097827 -0.05262152 0.12916711
-0.08157204 -0.056719795 0.011321174 0.04186361 0.069302484 -0.08203173 0.1349448 0.0018810215
-0.126428 -0.15822075 -0.0029532914 -0.018727938 0.028968304 0.018154684 0.035815995 0.13275595
-0.033919916 0.12695606 -0.06492743 0.13862723 0.02515337 -0.15891822 -0.13661271 0.025521418
-0.09332645 -0.1223209 0.049011983 0.04378541 -0.10020007 -0.049987778 0.08006628 0.08911935
-0.0030905032 0.050964992 -0.050457865 0.15129586 -0.022654645 -0.12060937 -0.17035742 -0.06737652
-0.09832392 -0.11745075 0.05866289 -0.07514214 -0.060728252 0.09338899 -0.04125496 0.11539935
0.026048606 0.10153426 0.08972533 0.09045924 -0.13437936 0.15150726 -0.12336252 -0.062252335
-0.03574495 -0.111637056 -0.0981987 -0.13560711 -0.14732295 -0.03212799 -0.054581307 -0.0093420595
-0.02454181 -0.094027765 -0.114594325 0.041115224 -0.09646718 0.020987019 0.0827751 -0.023500666
0.053198464 -0.14900509 -0.036026623 0.11288046 0.1567149 -0.14521101 -0.17302082 -0.17331816
0.07837879 0.05971609 0.04407179 -0.10533444 0.1328532 0.022406317 -0.12346685 -0.096370906
-0.103978865 0.13364188 -0.15156454 0.06622001 -0.0059624678 0.010025837 -0.0020106528 0.15039718
-0.16990389 -0.167006 0.045079272 0.14283554 0.0035615813 -0.030456398 0.1342958 -0.0763593
0.13278137 -0.13064106 -0.047260866 -0.1514687 0.1468176 -0.05607093 0.075574145 0.13209507
-0.03182112 0.033645675 -0.1407938 -0.058869857 -0.113520935 0.105853245 0.0124375755 -0.10551732
00000000: cc45 a9bd 5c70 66bd 4855 ddbc 551b e33d
00000010: d56a 463d 8599 d0bd 73d4 25be 530d 013e
00000020: 70b1 003e 6bb9 503c 802b d63d b073 553d
00000030: 70e6 0fbe cca6 3d3c cead ef3d f9fb ac3d
00000040: f85b e1bc ff4e a1bd 02de dbbd 41f7 b5bd
00000050: e430 91bd 9796 1cbe c0b8 8f3d 6f8f d73d
00000060: 79ae 2bba 517d ff3b 222f 1cbe cca5 fcbd
00000070: a437 173d 1470 96bd 1abd d63b 0a80 863c
00000080: c10f d83d 84aa 0a3e 7d59 b93d a5fa d1bd
00000090: a5c8 1fbe 508b 273e d7be 1c3e 8b12 1a3e
000000a0: 8ca1 de3d c39a 1d3e f603 13be 8e2a 34be
000000b0: 7513 863d 5983 b2bc 234b 02be 7696 15be
000000c0: e731 2b3d 2359 ca3d 5baf 263e e3cc a1bd
000000d0: d128 953d 99a5 ee3d 591d afbc 1836 57bc
000000e0: 1f1a 19bd c3b0 adbd 8a64 1fbe e077 143e
000000f0: 0238 df3d 7ad8 cabd 6135 16be bfa6 bb3c
00000100: 34f3 dabd 6433 2d3e 886f eebd 3514 91bd
00000110: 10b2 9cbd efb6 343d c94d 7bbd dbdb a5bd
00000120: 4626 a83d 8e43 bf3d 87ab e4bd c258 60bb
00000130: 186f 2abe 863a ee3d 25e1 90bd 47ed f23d
00000140: 7a31 0bbd 1a61 af3d ca11 0f3c 4632 063d
00000150: b0f6 433d 1db0 10be 7358 93bd a09a 0ebe
00000160: 0de2 123e 2f5f 07be 86c0 263e 4f99 1ebd
00000170: 5349 1d3e af4d 1b3e 7aa7 1b3d f23f 48bc
00000180: 5d6a acbd 23f9 96bc 3ce7 c83d 4f20 8c3d
00000190: 6a1e d83d 426b 2fbe 5c64 21be d21a cbbc
000001a0: f6ce 09bd faa5 9bbd 7abd 2bbe 130a 2e3c
000001b0: 2d82 0d3e dff9 86bd 8799 d43c 1541 77ba
000001c0: b6a7 3bbd bf97 04be 0d18 ff3d 14e8 323e
000001d0: c3cb 343e 3ca2 13bd 2dd6 d43b 9578 eabd
000001e0: 8036 97bc 52b1 f53d 243d d3bd 6bea cc3c
000001f0: 24e9 a9bd 6f2c c1bc a2f0 a3bd 5518 203d
00000200: 480f 7b3c a339 083e 5969 bb3d 8128 203c
00000210: 21c4 803d 0c9a 1a3e aa89 57bd 6244 043e
00000220: 3e0f a7bd 0453 68bd 727c 393c 2d79 2b3d
00000230: 76ee 8d3d 4000 a8bd f82e 0a3e 9c8c f63a
00000240: 5776 01be 9f04 22be 028c 41bb 556b 99bc
00000250: f04e ed3c 22b9 943c cbb3 123d 2df1 073e
00000260: 9cef 0abd c500 023e acf8 84bd 4cf4 0d3e
00000270: 710e ce3c 75bb 22be 34e4 0bbe 4b12 d13c
00000280: f021 bfbd 6183 fabd cac0 483d 5458 333d
00000290: b235 cdbd fcbf 4cbd caf9 a33d 3584 b63d
000002a0: 0a8a 4abb abc0 503d e8ac 4ebd 4ded 1a3e
000002b0: 3c96 b9bc 0c02 f7bd 2d72 2ebe b3fc 89bd
000002c0: 0d5e c9bd 058a f0bd 8048 703d 1fe4 99bd
000002d0: 30be 78bd ba42 bf3d f6fa 28bd 7f56 ec3d
000002e0: e363 d53c 32f1 cf3d eac1 b73d b242 b93d
000002f0: be9a 09be b824 1b3e 7da5 fcbd 4efc 7ebd
00000300: 4c69 12bd f8a1 e4bd 661c c9bd 97dc 0abe
00000310: d4db 16be a498 03bd a690 5fbd 700f 19bc
00000320: e80b c9bc a191 c0bd 6eb0 eabd 7068 283d
00000330: 9690 c5bd f8ec ab3c fe85 a93d 7884 c0bc
00000340: a2e6 593d ca94 18be a790 13bd df2d e73d
00000350: df79 203e 32b2 14be 5f2c 31be 517a 31be
00000360: 0f85 a03d dc98 743d 9f84 343d 95b9 d7bd
00000370: ab0a 083e 748d b73c 30dc fcbd 1c5e c5bd
00000380: dff2 d4bd 6bd9 083e bc33 1bbe 5b9e 873d
00000390: ce60 c3bb 6943 243c 28c5 03bb b801 1a3e
000003a0: 49fb 2dbe 9f03 2bbe 0ba5 383d 7b43 123e
000003b0: 6b69 693b b27f f9bc d784 093e 4462 9cbd
000003c0: d7f7 073e c5c6 05be 9c94 41bd 9c1a 1bbe
000003d0: 5a57 163e a2aa 65bd 9ec6 9a3d ee43 073e
000003e0: dd56 02bd 0cd0 093d 402c 10be 8521 71bd
000003f0: aa7d e8bd 96c9 d83d f9c6 4b3c 7719 d8bd
