API/BUMI-API/model.tflite (tflite, 57856 bytes, 17 tensors)

context_encoder_1/proj_layer/bias f4 [8]
00000000: 8ea9 023c 7315 8d3d ecc3 2abc d207 133c
00000010: ca59 46b9 d54e b63b aa30 fc3c 54f8 eeb9
0.007974995 0.06888857 -0.010422688 0.0089740325 -0.000189162 0.0055635967 0.030784924 -0.00045579916

context_encoder_1/hidden_layer1/bias f4 [32]
00000000: 6723 a2bc 1219 42bc a74d 013d a168 013b
00000010: c43a 35bc 6d34 e03c 0000 0000 006a d43b
00000020: 3313 16bb dcaa 273d cb22 98bc 13e1 5c37
00000030: 0bf5 e9bb 0689 c7bc c58a 873c 6e16 e8bb
00000040: 0000 0000 32c0 9ebb 606d e03c 68b8 523c
00000050: 4445 843c d9be 49bc d03d 5cb9 f407 14bb
00000060: 9009 0339 fe76 1abc 5076 493c 98a9 25bb
00000070: eff7 363c 6c62 44b9 66c8 64bb 26d1 193d
-0.019792272 -0.011846798 0.031568196 0.0019746202 -0.011061374 0.027368749 0.0 0.0064823627
-0.0022899627 0.04093443 -0.018571278 1.3165426e-05 -0.007139807 -0.02435733 0.016545663 -0.007082752
0.0 -0.004844689 0.027395904 0.012861349 0.01614631 -0.012313568 -0.00021003862 -0.0022587748
0.00012496696 -0.009427784 0.012296274 -0.0025278088 0.01116751 -0.00018728682 -0.0034909486 0.037552975

context_encoder_1/hidden_layer0/bias f4 [32]
00000000: 9040 e23c 049d d03b b3a9 88bc d55d 0cbb
00000010: 7cc6 7b3b 0916 af3c 0000 0000 b33e 3dbc
00000020: 9491 913b f697 3fba 7504 a4ba 0aff 8b3b
00000030: aa04 943b 96a4 ab3c f0c5 b63c f14b 343c
00000040: 2452 ed3b 32d8 76bc 0000 0000 3f6d 1cbb
00000050: b784 0e3c cf56 05bc d7e1 30ba cd64 7bbc
00000060: 7037 d7bb 0000 0000 5737 763b d0bd a6bc
00000070: 2409 8cbb 88f8 81bb 3835 7337 0000 0000
0.027618676 0.006366374 -0.016682481 -0.0021418233 0.0038417866 0.021372812 0.0 -0.011550593
0.004442403 -0.0007308716 -0.0012513535 0.0042723464 0.0045171576 0.020952504 0.02231118 0.011004434
0.007242458 -0.015066193 0.0 -0.0023868827 0.008698634 -0.008138373 -0.000674752 -0.015343857
-0.006567888 0.0 0.0037569606 -0.020354182 -0.0042735506 -0.003966395 1.449632e-05 0.0

context_encoder_1/feature_group_encoder_3/conv1d_7/bias f4 [32]
00000000: f17a 003c 2be3 9a3c 68ce 9d3b e0de 51bc
00000010: 8c7a f2bb ece7 533b 69a1 e03c f852 713c
00000020: e3a9 003b 7bf4 7b3c 7b54 64bc 1f19 003c
00000030: 6a74 2a3b 9473 a7bb 8224 913a d696 4abc
00000040: baea 98bb 9191 f0b7 aad2 50bc 5191 843b
00000050: 6d46 9b3b 815e 21bc ea82 04bb de02 ddb6
00000060: 071c 0dbb 2f50 71bc a8b0 693a 9f08 debb
00000070: abeb fb3b b36c 5abb 1d25 30bc 6e5b fe3b
0.0078418115 0.01890715 0.0048158653 -0.012809485 -0.0073998626 0.003233428 0.027420716 0.014729254
0.001963251 0.015378113 -0.013936157 0.007818489 0.002600933 -0.0051102135 0.0011073502 -0.012365064
-0.0046666535 -2.8678014e-05 -0.012745539 0.0040456434 0.00473862 -0.009849192 -0.0020219632 -6.586647e-06
-0.0021531598 -0.01472859 0.00089145685 -0.00677593 0.007688006 -0.003332895 -0.010751036 0.007762364

context_encoder_1/feature_group_encoder_3/conv1d_6/bias f4 [16]
00000000: 6096 293b a8a7 15bc 6e40 37bb 9394 5b3c
00000010: 3020 bf3a 249d 193b 7088 b3bb 913d aa3a
00000020: 610c 4fbc 41d5 5f3c 8885 fc38 781f 253a
00000030: 8c8d e2bb de1f e63b e47b 5dbb 6ea3 85bb
0.0025876984 -0.009134211 -0.0027961987 0.013402122 0.0014581736 0.002343961 -0.005478911 0.0012988319
-0.012637229 0.013661684 0.000120411685 0.00062989397 -0.0069138464 0.007022842 -0.0033795768 -0.00407832

context_encoder_1/feature_group_encoder_3/context_movie_genreembedding_layer/embeddings f4 [11, 4]
00000000: cda4 2f3b 734a 973e e16f a3be bea3 2d3f
00000010: a839 f7be 506a 943e c691 1f3f 6376 a53d
00000020: 5583 3c3f 80a6 0dbe b9f3 143f a334 acbe
00000030: d970 923e 5e33 a0be 73fe 2ebd f277 2cbe
00000040: f617 0fbf b81f 2d3f 8e7b 23bf abfc 4c3e
00000050: 419e d8be 90bc e5ba 6873 0bbf 621a 82bd
00000060: 05bf e03d c1f5 83be 5a68 26bf 1e23 f8be
00000070: 74ed 21be 1223 333d a7b3 d63e a03f 113f
00000080: a321 af3e 6123 383d add5 bf3d f566 a4be
00000090: be45 b0be 357a 38bf b6f6 ecbe 43e5 403f
000000a0: 758c 01be 41b8 14bf 61e9 573f cbc5 b5be
0.002680111 0.29548988 -0.31921294 0.67827976 -0.48286176 0.2898736 0.6233181 0.08079221
0.73637897 -0.13833046 0.5818439 -0.3363391 0.2860172 -0.3128919 -0.04272313 -0.1684263
-0.55895936 0.67626524 -0.63860404 0.2001826 -0.42308238 -0.001752751 -0.5447297 -0.06352688
0.10973934 -0.25773433 -0.6500298 -0.48464292 -0.15813237 0.043734618 0.4193394 0.5673771
0.3420535 0.044955615 0.09366927 -0.321098 -0.3442821 -0.72061473 -0.46281976 0.75349826
-0.12651236 -0.5809365 0.8434048 -0.35502467

context_encoder_1/feature_group_encoder_2/conv1d_5/bias f4 [32]
00000000: 8fef 05ba 0a59 663b 0000 0000 c7f0 803b
00000010: 3169 91b9 e5b6 b43b 4073 0e3b 84ed 10bb
00000020: a1b5 cc3b 8ae6 8ebb 0000 0000 0be8 ccba
00000030: 8b98 7c3a 1d3e 303c 821d 053b 0000 0000
00000040: 24b7 b1bb 723b 7cbb 45c0 adba 0000 0000
00000050: 0658 c7ba 0000 0000 ee1d 0b3c 1e52 0db9
00000060: 8e92 2f3b d87d 0fbb a038 caba 9ab8 963c
00000070: fcbc df3b e446 31bb c5bf 7dbb 392d 503c
-0.00051092444 0.0035148286 0.0 0.003934953 -0.0002773493 0.005514967 0.0021736175 -0.0022114227
0.006247238 -0.0043609785 0.0 -0.0015633119 0.0009635768 0.010756996 0.0020311777 0.0
-0.0054234434 -0.003848758 -0.0013256153 0.0 -0.0015208728 0.0 0.0084910225 -0.00013477399
0.0026790234 -0.0021895077 -0.0015428253 0.018398572 0.0068279486 -0.002705031 -0.003871904 0.012706094

context_encoder_1/feature_group_encoder_2/conv1d_4/bias f4 [16]
00000000: e131 663b b52d 553b fc3a 8039 4ac2 613b
00000010: e169 7539 0000 0000 4534 deb9 0000 0000
00000020: e71d f7b8 da2f d43b 2e61 8c3b 5409 5dbb
00000030: 0d7c ab3b 2f61 c6ba 2177 8d3b 3f55 deb8
0.0035124945 0.0032528464 0.0002445801 0.003444808 0.00023404464 0.0 -0.00042382083 0.0
-0.000117834476 0.006475431 0.0042840457 -0.0033727484 0.005233294 -0.0015135164 0.00431718 -0.00010601663

context_encoder_1/feature_group_encoder_2/context_movie_idembedding_layer/embeddings f4 [200, 8]
00000000: cd7d fdbe 5d39 19be df09 87be 5a8a 2bbe
00000010: 76d6 68be 121a 423e f401 163e d9bd 52bd
00000020: aabb a33c 454a 98bd 1480 e8be ae88 813e
00000030: 2f29 883e a749 fabd d3f3 c5be 0c89 04be
00000040: 0b90 d9be 127f 7dbe b0d2 fcbd 9eb0 943e
00000050: c267 d3be 7069 f63d 705c b2be be70 283e
00000060: a758 90bc 09f6 003f fdc8 e83d 824b 273f
00000070: d128 c33e 9b7f 843e ab28 2ebf 4a03 8fbe
00000080: 156c 443e c62e cabe 6171 bd3e c956 08bf
00000090: 2899 193d e541 243e 5acd 333e 0571 efbe
000000a0: 2b5b dfbe bdc0 e4be e910 f3be 3ec2 213e
000000b0: 4cae d0be 99b4 9a3e 8638 843e 4f36 1cbe
000000c0: 26d9 d3b8 c9ce 01be e563 1dbe ae35 e8be
000000d0: 4301 d8bd 4ef8 80bd fa7b 1f3f ac3b aabe
000000e0: ddeb abbd 5959 eabe 962d 873d 5c93 ecbe
000000f0: 0cc5 d7be 9295 82be ab16 a4bd 47a2 553d
00000100: c78b 62be 0087 78be efc9 5f3e b55c fc3d
00000110: 45d5 c83d 5972 97be 4b17 5a3d ae61 21bf
00000120: c591 29bf d42a 1ebe c07e 4c3e afbf 203e
00000130: 89b5 6fbe 79c1 a43d 6068 68be 9974 123e
00000140: a468 9e3e 43f7 5fbe e1af c7be 7b79 0ebf
00000150: 7bed 023e 7b2c 023c 4f39 05bf 4ea9 683e
00000160: 21b2 09bf be14 97be 43f7 2c3e 102c 13bf
00000170: 3ed4 f6be 0910 f8be 0c85 b0bd bb48 91be
00000180: d13d b53e d206 eb3d 429b a03e 91ed 3bbe
00000190: 9cb9 b1be 0a5d 91be 4733 343d f2f8 2b3e
000001a0: e855 083f abde 0bbf e719 973e 70fe 8b3e
000001b0: eb5e 263e 9ac8 9b3e ee12 30be 0301 5bbe
000001c0: 3857 03be 1198 08be 6181 1dbe ce4e 203e
000001d0: 9ab8 0d3f 060e 62be f935 ccbd 6b64 b1be
000001e0: af83 f83e fb9f f0bd 1c13 8dbd 2c09 4a3e
000001f0: 73b5 d83e a94b 87be bba8 3cbe 8cdb 403e
00000200: 8b84 c33e e0d6 923e 7952 f03e c0b4 eabe
00000210: 4687 9ebe a530 b73e 6f14 4b3e 8c41 7bbe
00000220: ec29 8a3d b013 1bbd a0b2 b5be 0e0c f83d
00000230: 5be7 f23e dce4 6f3e ae03 05be 9b76 223e
00000240: 7ca7 5cbd a20e 07bf b52e d9be 4f2a 7dbb
00000250: 8de0 16bf a78e ad3d 7802 acbe 0f38 a3be
00000260: f4b1 ba37 7b62 05be 7d64 bc3e 0c5a 023e
00000270: 4cd6 05be 32c8 683e daee d73e 9306 77be
00000280: b640 16bf 6360 283e ccf8 d63d ad62 9dbd
00000290: 07f5 0f3f 1c07 80be ed78 a2bd 942b fcbe
000002a0: 177a a53e cca4 133f fa3c 8fbe 133d 8a3d
000002b0: 2446 00bd 5d07 e43e 3e3b 113e a563 5e3e
000002c0: 1a40 993e 21e7 953e 0fd9 10be 3f93 31bf
000002d0: baba 823d 36e1 80bd 713e 0dbd 3bf0 ff3b
000002e0: b176 34be 3821 75be 175a 0a3f 3ea2 cc3e
000002f0: 18d6 d1be 93ac c13d f0d6 38be 0b70 64be
00000300: e4f5 a0bd 2fae eabc bacf 10be 685c 25be
00000310: 595c 09be 80a6 1b3d f636 9a3d d9d1 aa3e
00000320: 602b c53d 6c6c a73e 5167 e0bd 1ca4 dc3e
00000330: 6eab b63e 6f5c 41be 5899 61be c386 e4be
00000340: 67be 253f 6ec0 00bf 0906 c43e 60b5 07bf
00000350: 24bf 22be 2721 a3bd d19b 1a3e af96 87be
00000360: 0002 273e 77d9 f5be a666 ccbe 508e cb3c
00000370: 169b 043f 93c4 68bd 8f8e 44be df25 c73e
00000380: 8800 adbd eee5 1abf cdb1 073e d067 0fbf
00000390: 477d 8dbe 4d20 d1be 6d1c f33e 85cb 12be
000003a0: 0114 263f 6ddb 89be 74ff fdbe cb66 bd3d
000003b0: 95a9 3a3e 1c45 f2bc da0e a1be 51c4 59be
000003c0: 07bf 3e3e 89bc 57bc 452b 373e 254b b63e
000003d0: e393 8a3e 3035 02be 44f6 f33d 04e0 dcbd
000003e0: 168c 13bd 80d3 1b3f 9602 5f3e 08ea be3d
000003f0: a50d b2be fd6c 1c3e 74ac 863e 1936 d4be
-0.4951004 -0.14963289 -0.2637472 -0.16751996 -0.2273806 0.18955258 0.14649183 -0.051450584
0.019986946 -0.07436041 -0.45410216 0.2529959 0.2659392 -0.12221079 -0.38662586 -0.12942904
-0.4249271 -0.24755505 -0.12344873 0.29040998 -0.41290098 0.12031829 -0.3483615 0.16449258
-0.017620398 0.5037542 0.113664605 0.6534959 0.38117078 0.25878605 -0.68030804 -0.27932197
0.19181855 -0.3948881 0.37000564 -0.53257424 0.037499577 0.16040762 0.17558804 -0.46765915
-0.43624243 -0.44678298 -0.4747384 0.15796754 -0.40757978 0.3021591 0.25824374 -0.15255092
-0.00010101711 -0.12676539 -0.15370138 -0.45353454 -0.10547116 -0.0629736 0.6229855 -0.3324865
-0.08394597 -0.45771292 0.06600492 -0.46206176 -0.42142522 -0.25504738 -0.08012136 0.052156713
-0.22123633 -0.24270248 0.21854375 0.1232237 0.09806303 -0.29579428 0.05324487 -0.6303967
-0.6623805 -0.15446025 0.19970226 0.15698121 -0.23409094 0.080447145 -0.22696066 0.14302291
0.3093921 -0.21871667 -0.39001372 -0.55654114 0.12785904 0.007945175 -0.5204057 0.22720835
-0.5378743 -0.29508013 0.16891198 -0.5748911 -0.48208803 -0.48449734 -0.08619127 -0.283758
0.35398725 0.1147591 0.31368452 -0.18352343 -0.3471192 -0.28391296 0.043994214 0.16794184
0.5325608 -0.5463664 0.2951195 0.27342558 0.16247146 0.30426484 -0.17194721 -0.21387105
-0.1282624 -0.13339259 -0.15381385 0.15655062 0.55359805 -0.22075662 -0.09971232 -0.34646925
0.48537967 -0.11749264 -0.068884104 0.19730061 0.42325935 -0.26424912 -0.1842374 0.1883375
0.3818706 0.28679562 0.46937922 -0.45841026 -0.3096258 0.357793 0.19832014 -0.24536723
0.06746277 -0.037860572 -0.35487843 0.12111674 0.47442135 0.23427147 -0.12989685 0.15865557
-0.053870663 -0.527567 -0.42418447 -0.0038629954 -0.5893639 0.084744744 -0.33595634 -0.31878707
2.2255794e-05 -0.13025849 0.36795416 0.12729663 -0.13070029 0.22732618 0.42174417 -0.24123602
-0.5869249 0.16443019 0.10496673 -0.076848365 0.5623326 -0.25005424 -0.07933221 -0.49251997
0.3231971 0.57673335 -0.2797621 0.0674993 -0.03131689 0.44536868 0.14182755 0.21717699
0.29931718 0.292779 -0.14145301 -0.69365305 0.063832715 -0.062929556 -0.034483377 0.00781062
-0.17623402 -0.23938453 0.54043716 0.3996753 -0.40983653 0.09456744 -0.18050742 -0.22308366
-0.078594 -0.02864751 -0.14141741 -0.16148531 -0.13414134 0.038000584 0.07530014 0.33363226
0.09627414 0.32699907 -0.10957206 0.43093956 0.35677665 -0.18882917 -0.22031152 -0.44634065
0.64743656 -0.50293624 0.38285854 -0.5301113 -0.15893227 -0.07965308 0.15098502 -0.2648215
0.16309357 -0.48017475 -0.39922065 0.024848133 0.5179914 -0.056828093 -0.19195007 0.3889608
-0.08447367 -0.60507095 0.1325142 -0.5601778 -0.27634642 -0.40844956 0.47482625 -0.14335449
0.64874274 -0.2692522 -0.49608958 0.09248122 0.18228753 -0.02957397 -0.31456643 -0.21266295
0.18627559 -0.013167509 0.178876 0.35604206 0.27065954 -0.12715602 0.11912206 -0.10784915
-0.03602227 0.608696 0.2177833 0.09321982 -0.34776035 0.1527595 0.26303446 -0.41447523

context_encoder_1/hidden_layer0/MatMul f4 [32, 64]
00000000: dcd0 35be 9fa3 783e c468 68be 79e0 12bb
00000010: 84a1 02be 4691 1e3e 8aaf 7cbe 1f60 343d
00000020: e285 4ebe af77 17be 8049 083e aff8 7dbd
00000030: de81 12be 1c84 e23d fabe a93d c0fe d8bd
00000040: 2f87 613e fa83 70be 9a7a 073e 784c 67be
00000050: f026 49be d0c2 4ebe a128 b43b 6014 0c3e
00000060: 2547 0e3e 9617 babd fea9 71bc e9a4 4cbe
00000070: 32f7 be3b 1273 8f3d 8ac4 933c 8316 563d
00000080: 3d69 cc3d 1c6e b1bc aa84 67be 7f99 7ebe
00000090: 396c 783e 8f80 48bd 8032 033e f0a8 d2bd
000000a0: 348d d3bd 2340 513e 073a 0ebd 6264 bebc
000000b0: 0db8 49be 695f 283e 6e16 4a3d d5d7 04be
000000c0: ff6b 0dbe c18c 3e3e ac56 14bd ae6d 203e
000000d0: 49ff 08be 38b1 e0bd 0c6b 40be 6bd0 583e
000000e0: 8267 303e 566d 793d c8c7 233e d2be aabd
000000f0: e574 983d 2724 61be 01c8 6cbe 23e1 df3d
00000100: bc09 dbbd cf49 d93d a03b 5cbd ed78 74be
00000110: 4c80 7fbe e430 0bbd 0ca8 b7bd 868d 73bc
00000120: 4788 7abe 9fe2 4e3e d491 1abe 2f21 463e
00000130: 8870 7a3e 1530 213d d6f7 3abd a09c 943c
00000140: 349a e9bd 8400 26bd 47ab 73be a0a2 663d
00000150: 8016 9f3d 2079 4dbe 9f23 66be 58a5 bebd
00000160: 03aa 863d 8060 1c3c eace 9abd a087 5f3e
00000170: b9f6 27be cff8 16be 6e3f 753e 8a9a 5b3d
00000180: d942 9a3d 56ff 3e3e 655d 6a3e aa73 0e3e
00000190: c76f abbd 5397 ca3d dc59 c9bd 2f97 463e
000001a0: 9a89 4fbd 585e 133e 07cb b73d 2068 243e
000001b0: a535 253e fba1 34bd b8a4 743e 38bf 87bd
000001c0: fc5c 22be c5d6 5a3d e0a0 cb3d af33 4a3e
000001d0: a57e ccbd 7fa9 de3d d1ba d0bd 89b2 a93d
000001e0: 67fa 44be ff4f d3bd 583b 8cbd 11b3 b1bd
000001f0: 3bf3 7abd 149b eebc 463f 0d3e 437e fd3d
00000200: 65d7 3d3e 3380 b63d 087a a03d e08c 42bd
00000210: f059 6f3c 0952 923d f26e 05bc fd65 ca3d
00000220: 8837 463c 84fe 72bd 20b8 88bd bb58 e53c
00000230: f9fd 703e a28c 15be a9af 543e b094 b6bd
00000240: 5279 a93d 8b17 53be 1196 8f3d e0db 023e
00000250: 86f5 7bbd bc39 183e dfc4 e83c 550f 843c
00000260: f11e 43bc ee38 90bd c5d4 e6bd 5bcf a2bc
00000270: 243a 62ba 9569 6bbd a14f 1cbd 2d5a 173e
00000280: b182 b63d 42dc 19be cb06 2bbe e768 3ebe
00000290: dd3d 0fbe 872a 6abe fe87 0abe bd81 373e
000002a0: 0726 4ebe bf5b 6abe 2307 84bb df86 60be
000002b0: 3750 363d e292 a1bc 75c3 4ebe 719d 71be
000002c0: 48b9 d83d 2967 253e 2f5a e23d 2c6f 48be
000002d0: cc56 22be 2d02 543c d05c 5a3d 22d2 47be
000002e0: a27f 54bd 26d0 473e 4ebe 39be ed41 33be
000002f0: 5477 f63d c86d 6c3e 9410 783e eae8 313d
00000300: e815 abbd e3f2 8f3b d026 643d 803c 963d
00000310: c6b3 623e c97f 0ebb b153 31bd 6183 083e
00000320: 12bb 45bd 60d5 5abe c0de d13c 303b 00be
00000330: 11f1 d5bd 834c 1b3d 2a73 703e a0d5 2b3e
00000340: a94d 7ebd 219a 84bd e2ab 2e3e 78f8 5f3e
00000350: 4079 073d 40e3 16bd b7a3 043e 4baa 3b3e
00000360: df96 553d e71c 3e3d dca6 723e d930 203e
00000370: 1e5d 573b 648f a93d aa63 5abe 1a5c 0bbe
00000380: 3665 d8ba 94c1 173e 7adb 4c3d 318b 533e
00000390: 3ea7 c8bd 108f 5cbe 97d5 23be a1bc 793e
000003a0: b4e1 773e d706 1fbd ff0c 4fbe 17f8 163e
000003b0: 5114 a73c c100 f7bd 4df1 7ebc ffce 523e
000003c0: eae4 f83c 9479 2e3d 6026 493e c2ff 093e
000003d0: 397f 4cbd 2eba 7d3e 9aec 35be 24e9 ee3d
000003e0: 8755 eebd 4740 e63d 64fc 1e3e dae3 0a3e
000003f0: 1359 6a3e ac5d 1abe 711a 5dbe a0f9 373e
-0.17755455 0.24281166 -0.22696215 -0.0022411628 -0.12756926 0.15485105 -0.24676338 0.04403698
-0.2016826 -0.1479175 0.13309288 -0.06200474 -0.14307353 0.11060354 0.08288379 -0.10595465
0.22024225 -0.23487845 0.13230363 -0.22587764 -0.1964376 -0.20191503 0.0054980074 0.13679647
0.13894327 -0.0908653 -0.014750002 -0.19984783 0.005827808 0.0700437 0.018038053 0.052267563
0.0998101 -0.02165895 -0.22609201 -0.24863242 0.24260034 -0.048950728 0.12812233 -0.102861285
-0.10329667 0.20434622 -0.034723308 -0.023241226 -0.19699116 0.16442646 0.049337797 -0.12972958
-0.13810728 0.18608381 -0.03621547 0.1566684 -0.13378634 -0.10971302 -0.18790835 0.21173255
0.17226985 0.060895287 0.15994179 -0.08337177 0.07444171 -0.21986447 -0.2312317 0.10931613
-0.10695216 0.10609781 -0.0537678 -0.23874255 -0.24951285 -0.033982173 -0.08967599 -0.014865285
-0.24466048 0.20203637 -0.15094692 0.19348596 0.2445699 0.039352495 -0.04564651 0.01814109
-0.11406365 -0.040527835 -0.23795806 0.056307435 0.077679634 -0.20065737 -0.22474526 -0.093088806
0.06575396 0.009544492 -0.07558997 0.2182908 -0.16402711 -0.1474335 0.23949978 0.053614177
0.075322814 0.1865209 0.2288719 0.1391131 -0.08370929 0.09892144 -0.098315924 0.1939361
-0.050668336 0.14391458 0.08974271 0.16055346 0.16133745 -0.04409979 0.2389096 -0.06628269
-0.15855783 0.053427476 0.09942794 0.19746278 -0.09985093 0.108721726 -0.101918824 0.08286006
-0.19236146 -0.103179924 -0.068472564 -0.08676732 -0.06126712 -0.029126681 0.13793668 0.12377598
0.18539198 0.08911171 0.078357756 -0.04749763 0.014608845 0.07144553 -0.008144127 0.09882734
0.012098201 -0.059324756 -0.06675744 0.027996412 0.23534383 -0.14604428 0.20770134 -0.08915079
0.08275093 -0.2061445 0.07011045 0.12779188 -0.061513446 0.14865774 0.028414188 0.016120592
-0.0119092325 -0.070421085 -0.11271051 -0.019874265 -0.00086298794 -0.057473738 -0.038161878 0.14780493
0.08911646 -0.15025428 -0.1670181 -0.18594705 -0.13988443 -0.22867785 -0.1352844 0.17920585
-0.20131694 -0.22886561 -0.004029171 -0.21926449 0.044510093 -0.01972336 -0.20191748 -0.23595215
0.105822146 0.16152634 0.110523574 -0.19573659 -0.15853423 0.012939972 0.05331117 -0.19513753
-0.051879533 0.19512996 -0.18139002 -0.17505617 0.12034479 0.23088753 0.24225074 0.043435015
-0.08353788 0.004392968 0.055701077 0.07335758 0.2213889 -0.0021743646 -0.043292705 0.13331367
-0.048274107 -0.21370459 0.02561891 -0.12522578 -0.104463704 0.037914764 0.23481432 0.1678071
-0.06208578 -0.0647471 0.17057756 0.21872127 0.033074617 -0.036837816 0.12953077 0.1832668
0.052145835 0.046414282 0.23696464 0.15643634 0.0032861899 0.08279303 -0.21327081 -0.13609353
-0.0016509655 0.14819938 0.050013997 0.20658566 -0.09797524 -0.21538949 -0.15999447 0.24388362
0.24207193 -0.038824882 -0.20219801 0.14743076 0.02039543 -0.12060691 -0.01556046 0.20586775
0.030382592 0.042596415 0.19643545 0.1347647 -0.049926016 0.24778053 -0.17766038 0.11665562
-0.11637407 0.11242729 0.15525967 0.13563481 0.22885542 -0.15074795 -0.21592118 0.17966318

context_encoder_1/hidden_layer1/MatMul f4 [32, 32]
00000000: da38 9dbe db39 66be a326 1abd 13a8 08be
00000010: 20f4 babc 1ad1 8cbe e036 8b3c d681 893e
00000020: b288 983e 1d6b 933e a35f 603e 485b 463d
00000030: 2065 0bbe c49e fa3d 7a8a dfbd fd84 883e
00000040: d8e0 7ebe 58e5 8cbe b36a 9abe 186d 38be
00000050: 2b90 9abe fd68 90be 8a82 263e 4906 df3c
00000060: db47 4f3e 0415 50be 5f2b a43d 6754 26be
00000070: b235 183e 7acb e6bd 45a0 083e d6d6 39be
00000080: 0d58 953c ddd0 44be 9f97 793e 245c 9cbe
00000090: a2ee 45be 4e6f b4bc 80e8 cf3c 0783 44bc
000000a0: 1718 0c3b 9dc7 03bd f1b9 e1bc 5d4d 24be
000000b0: e146 5abe 6c17 89be a402 1c3e 37e9 e03d
000000c0: 8ba5 9a3e 8f4b 0c3e 9df8 983e 5e47 19bc
000000d0: 14f4 563e 3d92 59be d985 c9bc e944 353e
000000e0: 8ee9 1a3e b1c4 03be e6d6 bf3d b4af 1a3e
000000f0: 6440 6f3e 199a 9cbe a4b6 70bd f5b6 843e
00000100: 2ea0 db3d 87f7 a3bd 9fc6 b5bd e9b8 4fbc
00000110: 8e77 93be c519 8d3e 9129 14be a72d 44be
00000120: 574b 2b3e cc2f d43d 88b7 3b3e 7bc4 80bd
00000130: 2a1e 3ebe e662 413e 063f 2b3e 3a37 ebbd
00000140: e1c1 08bd 8a4d 043e e0e1 2e3d b8ee 6cbd
00000150: 24b4 b23d ed86 903e 13e7 17bc 2247 03be
00000160: b2f0 c3bd e0f3 f33c 1701 3c3d 958c c33d
00000170: c8b1 42be e117 333e 00b3 883e a3a5 2cbe
00000180: bdcd 89bd 51a7 58be 3d8b 973e a0d5 093e
00000190: 8186 6fbe 8696 303e 8b6e 28be 84a2 bcbd
000001a0: 9fa9 983e 55c5 d63d 3e91 913e 1674 223d
000001b0: 574c 233e cd17 4c3d 5d24 963e 9df7 99be
000001c0: c33e 80be 3a30 413e e0b0 86bc 78cf 3dbe
000001d0: a74b 673e a071 7d3d ad06 89bd c87f 523e
000001e0: 885c 423e bed5 86be 7216 923e 9b14 b5bd
000001f0: 27a6 96be f169 23bd c514 7a3e 3cb7 2dbe
00000200: e392 fd3d 8d59 b73d 1192 36be a25e 3dbe
00000210: 4456 7d3d 9f7d 15be 5660 393e 16cf 883d
00000220: 11c9 c7bc 29a7 633e 3461 55be 785b b9bd
00000230: 4b5e b63b bf0c 973e 821c 183e 0918 34be
00000240: ad2b 383e 7774 753e 08b9 253e fd31 3f3e
00000250: 6e0b 89be b085 753e ca7d 6bbd ff34 60be
00000260: 03de 3f3c 4038 6f3c deb2 753e 83d7 4dbe
00000270: fc2e 47bd 872b 4abe b254 d33d 7099 cc3d
00000280: 1f81 c9bc efd1 afbc 9fe8 8f3e 6d41 53be
00000290: 66ee 8fbe 1f58 cf3d 760f 653e 70d9 973e
000002a0: 9ae1 8dbe 39d7 53be 26ce 323e feef 4f3e
000002b0: 7d58 75be d41f 6f3e 86c6 e43d a328 943e
000002c0: 623e 9d3e 2f6c b6bc 1a31 613e 1805 413e
000002d0: 3aaf 753e 5f93 993d 82c6 013e 4979 c43d
000002e0: c525 75be e9e5 973e cab0 a2bd 4373 8fbe
000002f0: ffa0 33be ec4b 833e ff71 2f3e d6e7 1fbe
00000300: 4083 26bd 4974 95be 98fc a53d b4c0 74be
00000310: 149f 64be 9016 e23c 1f95 28be 80c1 cdbc
00000320: c12d 59be 9c8b 2abe 85bc 943e b6ae 99be
00000330: 8899 88be 304e 0abe 63d7 03be 7cc1 d1bd
00000340: b916 0bbe 0016 e5bc 7ef6 5c3e 5000 73bd
00000350: 6976 813e 286e d4bd 0ad1 693e 60fa 9b3c
00000360: fc16 4abe 286c 22bd 33f8 8cbe b641 0a3e
00000370: 84e9 f3bd e40a 78bd 4ebd 613e 7878 7c3d
00000380: 8e12 0dbb 8280 433e 4766 0e3e 299a d23d
00000390: 29ba a53d 77a5 1e3e 3c2d 253e 2830 f93d
000003a0: 595c 79be ab83 6ebe 9ab4 88be f65b 95be
000003b0: b252 04bc 113a 76bd 62e2 883e 48f8 11bb
000003c0: 289e 8d3e 6d7f 1abe 227b 523e 6525 9abc
000003d0: 8b48 a7bd 7262 8fbe 83d6 8cbe b220 86bd
000003e0: 2274 763e f01b a4bc 6ca5 f4bd 4b14 783e
000003f0: 490d 9bbe b0b0 2bbe 6d14 73be 1f45 943e
-0.30707437 -0.22483008 -0.037634503 -0.13345365 -0.022821486 -0.27503282 0.01699394 0.2685687
0.2979179 0.28792658 0.21911483 0.048426896 -0.13612795 0.122373134 -0.10915084 0.26663962
-0.24890459 -0.27518725 -0.3015953 -0.18010366 -0.30188116 -0.282051 0.16260734 0.027224677
0.20242254 -0.20320517 0.08016085 -0.16243134 0.14864233 -0.11269279 0.13342388 -0.1814836
0.018230462 -0.192203 0.24374245 -0.30539048 -0.19329312 -0.02202573 0.02537942 -0.01199413
0.0021376663 -0.032172788 -0.027554484 -0.16045137 -0.213161 -0.26775682 0.15235382 0.10981982
0.30204424 0.13700698 0.29877177 -0.009355394 0.20991546 -0.21247192 -0.024599956 0.17702068
0.15128157 -0.12868 0.093671605 0.15106088 0.23364407 -0.30586317 -0.05876793 0.25920835
0.10723911 -0.080061965 -0.088757746 -0.012678363 -0.2880215 0.27558723 -0.14468981 -0.1915804
0.16727959 0.10360679 0.1833173 -0.06287476 -0.18566194 0.18885383 0.1672326 -0.11485143
-0.033388022 0.12920204 0.04269588 -0.057844847 0.08725765 0.2822794 -0.009271401 -0.12820104
-0.09567393 0.029779375 0.045899477 0.09548298 -0.1901313 0.17489578 0.26699066 -0.1686006
-0.067286946 -0.21157576 0.29598418 0.13460398 -0.23391153 0.1724492 -0.16448419 -0.09210685
0.2981691 0.10486857 0.28431123 0.03966149 0.1594709 0.049827386 0.29324618 -0.30071726
-0.25047883 0.18866053 -0.016441762 -0.18536174 0.22587453 0.06187594 -0.066907264 0.20556557
0.1898061 -0.26334947 0.2853275 -0.08841821 -0.2942364 -0.039895955 0.24421985 -0.1696443
0.12381532 0.08952627 -0.17829157 -0.18493131 0.061849847 -0.14598702 0.18103155 0.066801235
-0.024387868 0.22231735 -0.20837861 -0.090506494 0.00556544 0.29501912 0.14854625 -0.17587294
0.17985411 0.23970209 0.16183865 0.18671413 -0.26766533 0.23976779 -0.05749301 -0.21895216
0.011710647 0.014600813 0.23994014 -0.20101742 -0.048628792 -0.19743167 0.10318889 0.099902034
-0.024597703 -0.021462409 0.28107163 -0.20630427 -0.2811157 0.1012423 0.22369179 0.2965808
-0.27711183 -0.2068757 0.17461452 0.20306394 -0.23959537 0.23351985 0.11170678 0.28937253
0.30711657 -0.022268383 0.21991387 0.188496 0.23992625 0.07498812 0.12673381 0.09593446
-0.23940189 0.29667595 -0.07943876 -0.28017625 -0.17541884 0.2564386 0.1713333 -0.15615782
-0.040652514 -0.2919028 0.08104819 -0.23901635 -0.22326308 0.02759865 -0.16463135 -0.025116682
-0.2120886 -0.16654819 0.2905008 -0.30016106 -0.26679635 -0.13506389 -0.12875132 -0.10241982
-0.13582887 -0.027964592 0.21578404 -0.05932647 0.25285652 -0.10372573 0.22833648 0.019040287
-0.1973533 -0.039653927 -0.2753311 0.13501629 -0.11909774 -0.06055726 0.2204487 0.061638325
-0.0021525952 0.1909199 0.13906203 0.1028331 0.08092148 0.15492807 0.16130537 0.12167388
-0.24351634 -0.23292415 -0.26700288 -0.29171723 -0.008076357 -0.06011397 0.26735216 -0.0022273231
0.27659726 -0.15087672 0.20554784 -0.01881666 -0.08168133 -0.28004795 -0.2750741 -0.06549205
0.24067739 -0.020032853 -0.11945614 0.24226491 -0.30283573 -0.1676662 -0.2373826 0.28958985

context_encoder_1/proj_layer/MatMul f4 [8, 32]
00000000: 4af5 81bd 7f6a f7bd d087 15bd f186 76be
00000010: 0c41 8fbe 5e01 20bd d0ed 393d b839 b63e
00000020: e549 563d db72 8dbe f2c8 01be 5480 69be
00000030: 74e5 aa3c 149b 4fbd 60a3 4bbd 8b2d a03d
00000040: b47b ffbd b3aa 6a3e d867 c63e 8cb2 25bd
00000050: cd58 513e eaa2 c13e 014c a2be fb2b b43e
00000060: 454f 8c3e a43a abbd 286c e33c c06e 09be
00000070: 3900 5abe 69f5 8cbd 36fb a43e f664 513e
00000080: e5ee c2be 3082 a2be d5a3 b23e 1935 2f3d
00000090: 78c6 97be c106 ae3e acab a43e 5df5 963e
000000a0: 6333 b5be 29cb ca3e 2d5a bdbe e1e4 603e
000000b0: 7c13 1e3d 04af d6bd 99e2 66be c364 94bd
000000c0: d076 503e 67fb d33c dda8 a03e ded0 ae3e
000000d0: eac2 f93d f762 a7be 0cdc 973d b0b7 09be
000000e0: 945f 303e 595a 91be e077 983e 84b4 143e
000000f0: dbeb 97bd 2690 a0be 0dfd 72be 1e48 b53e
00000100: d43b 823c dad5 fabd 0cd1 fa3d d8ae 743e
00000110: 6345 5b3e e6b3 063e f544 14be f19b 00be
00000120: 7f55 8bbe e982 853d dee0 a2be dcc8 c5bc
00000130: f968 bd3e c8fe 4f3e 32e6 913e 8660 b8be
00000140: 52a5 14be 168a c83e 00a0 15be 6c74 973e
00000150: c072 0d3e 1c63 a3be f181 823e 8ac6 f13d
00000160: 7b11 0dbe e4df 4cbd 7c9d 50bd 1e7d 1fbe
00000170: eb3b abbe d5db 7a3d 0acf a13e 8319 c5be
00000180: ba1e 64be 6091 b73e 5f06 ac3e 42aa 9d3e
00000190: bcde 84bc 676b bbbe 40da f53b 4b39 91be
000001a0: f175 a9be 1350 033e ae77 5dbd dbd2 0abe
000001b0: c9f2 a13d 4f6d c3bd 3700 acbe d0d4 b43e
000001c0: dfa4 16be 3de0 20be 85ca 983e 6db1 15be
000001d0: 262f 0a3e 8d0f bebd c964 423e 11d4 80be
000001e0: 02ff b9bc d1e3 7b3e 9718 b83e dc7b 71be
000001f0: 9626 523e 51d9 683e cdb1 463e 2c16 473e
00000200: 00aa 7c3b 64c6 833e b32c 9fbe 4f37 9a3d
00000210: afb7 89be 1a03 53be 8010 d43b 6d25 8abe
00000220: 00ad 77be f48f b9be 50c0 3ebd 87d2 83be
00000230: 02e6 9e3d 2d0c adbe d03b 86bd 80a6 c43e
00000240: 7070 6d3e 44a1 2f3e 4064 983e ddb2 b3be
00000250: 9c0a a2be 0801 303e bab8 b53b 3062 aebe
00000260: ba28 af3e 78b2 74bd b87a 5cbd b892 cc3d
00000270: be42 84be c4de 813e 9c50 273e 53ba acbe
00000280: 5f7d 8c3e 27b6 36be 42b0 923d e6f1 b3be
00000290: 2faf bfbe c3f3 683e 3124 78be 3bea ab3d
000002a0: b3ed 833d 5131 bd3e 3196 c5be 93e6 11be
000002b0: 6836 2dbe c120 e83d 73e2 9b3e b48e 7c3e
000002c0: f488 b7be 73ae 1fbe 0f65 573e 28f2 8c3e
000002d0: 714d c83c 67f9 1e3e c6e4 9c3e 76ec 883e
000002e0: 71ed 6bbe 2674 16bd 8a4b e7bd 9435 28be
000002f0: 40c4 3c3e 61c6 a33e 1bb0 b9be 8f30 b23e
00000300: 3921 20bd fef0 b9bd 4585 baba c661 d43d
00000310: d2f9 c3be e880 c53c b475 5c3e 00c8 efbd
00000320: f0b4 453e 7f73 4d3e b685 83bd a4f0 32bd
00000330: 7117 613e 406e 89be 3546 a73d baff c43e
00000340: 40cc 7e3e 095a b43e 41d1 edbd 2c64 0a3e
00000350: aaa8 b53b cc48 433e 6e2a a3be d7ea 56be
00000360: c89f bf3e 8fb1 fdbd dc07 643e 4321 0a3e
00000370: 10ce aa3e f771 98be b902 15be 92c8 e43d
00000380: 39e7 9c3e 6424 823a 6135 bdbe ddde c4be
00000390: 163b be3e 1d73 3cbe 90ac e13d 3722 d4bc
000003a0: 92a0 443e 5e00 653e f669 6abe 86a7 fbbc
000003b0: f634 dfbd dc6f 753e f80e 2dbe 7756 a33e
000003c0: e462 2e3e 9d22 b8be b031 cc3d b01a eebc
000003d0: a780 c3be 0477 a23e 69df 70be 5cb0 0d3e
000003e0: d66f 653d 2c5c 0d3d 06b2 86be 7052 a73e
000003f0: 922c 26be 38a8 01be f537 48ba 684f 63be
-0.06345613 -0.120808594 -0.036506474 -0.24074914 -0.27979314 -0.039063804 0.04539281 0.3559091
0.052316565 -0.2762669 -0.12674311 -0.2280286 0.020861365 -0.050685003 -0.049716353 0.07821187
-0.124747664 0.22916679 0.38751101 -0.04045348 0.20444031 0.37819606 -0.3169861 0.35189804
0.27404228 -0.08360794 0.027761534 -0.13421154 -0.21289147 -0.06882746 0.3222291 0.2044867
-0.38072887 -0.3173995 0.3489062 0.042775247 -0.29643607 0.33989528 0.32162225 0.29484072
-0.35390767 0.39608124 -0.3698286 0.2196231 0.0385928 -0.104826 -0.22547378 -0.07245781
0.20357823 0.025876714 0.31378832 0.34143728 0.1219538 -0.32692692 0.074150175 -0.13448977
0.1722396 -0.28389242 0.29778957 0.14521986 -0.07418033 -0.31359977 -0.23729344 0.35406584
0.015897669 -0.1224782 0.12246904 0.23894823 0.21413188 0.13154563 -0.1447943 -0.12559487
-0.27213666 0.0651911 -0.31812185 -0.024143629 0.3699415 0.20312035 0.28495938 -0.36011142
-0.1451619 0.3916785 -0.14611816 0.2958101 0.13813305 -0.31911552 0.25489762 0.118054464
-0.137762 -0.050018206 -0.05093144 -0.15575072 -0.3344415 0.061244804 0.3160327 -0.38496026
-0.22277346 0.358531 0.3359861 0.3079396 -0.01621949 -0.3660538 0.007502824 -0.28364024
-0.33097795 0.12823515 -0.054069214 -0.13556997 0.07907636 -0.09542333 -0.33593914 0.35318613
-0.14711331 -0.1571054 0.2984201 -0.14618464 0.13494548 -0.0928031 0.18983759 -0.25161794
-0.022704605 0.24598624 0.3595626 -0.23582405 0.20522532 0.2273915 0.19403763 0.19442052
0.0038553476 0.25737298 -0.3108879 0.075300805 -0.26897952 -0.20606652 0.0064716935 -0.2698168
-0.24187088 -0.3624264 -0.046570122 -0.25746557 0.07758714 -0.33798352 -0.06554377 0.3840828
0.23187423 0.17151362 0.29763985 -0.350974 -0.3164872 0.17187893 0.0055457028 -0.34059286
0.3421076 -0.059740514 -0.05382797 0.09988922 -0.2583217 0.2536527 0.16339344 -0.33735904
0.274394 -0.17842923 0.07162525 -0.3514549 -0.37438342 0.22749238 -0.24232556 0.08394285
0.06441822 0.36951688 -0.3859115 -0.14248113 -0.16915286 0.11334372 0.30446205 0.24663812
-0.35846674 -0.15593891 0.21034645 0.275285 0.02445099 0.15524827 0.3064329 0.26742905
-0.23039795 -0.03673186 -0.11293705 -0.16426688 0.18434238 0.3198729 -0.3626717 0.34802672
-0.039094184 -0.09079169 -0.0014230391 0.10370211 -0.38276535 0.024109319 0.21529275 -0.11708069
0.19307303 0.2006359 -0.06421988 -0.043686524 0.21981598 -0.26841927 0.08167688 0.38476354
0.24882603 0.3522494 -0.11612178 0.13514775 0.005543788 0.19070739 -0.3186831 -0.20988022
0.3742659 -0.12387382 0.22268623 0.13489251 0.33360338 -0.29774448 -0.1455182 0.11171068
0.3064516 0.0009929058 -0.36954787 -0.3845128 0.37154454 -0.18403287 0.11019242 -0.025895221
0.19201878 0.22363421 -0.22891983 -0.03071953 -0.10898773 0.23968452 -0.16900241 0.31901905
0.17029911 -0.35963908 0.09970415 -0.02906546 -0.3818409 0.31731427 -0.23522724 0.13836807
0.05601486 0.03451173 -0.26307696 0.32680082 -0.1622794 -0.12661827 -0.0007637733 -0.2219826

label_movie_idembedding_layer/embedding_lookup f4 [200, 8]
00000000: fa0c f93e 2abc a1bd 88ee bebe 45ec 1b3d
00000010: cad5 bf3d 4fdf 4cbe 976a 7fbe 82d3 a3be
00000020: 12d8 e7be b136 c4be 7d61 45bd 3062 ddbe
00000030: aed4 e0be b039 873e c1f6 00bf b173 b93e
00000040: 2190 dcbe e344 76bc d66e a8bd 193c a23b
00000050: 0793 4dbe 77fe 333e d48c 323d 6dc0 283e
00000060: 1493 3c3e cde5 e43e c981 61be edc5 d0bd
00000070: 7bd7 87be 31e2 353d 61a6 083f ebf7 c13e
00000080: 1bcb b1be b152 483e b668 d7be df22 a13d
00000090: 3e3e dfbe a127 f9be 14d1 163f 849b c5be
000000a0: b75f 64be 731c d53c 453e 23be fd0a d5be
000000b0: 64db 78be c08c cf3e 9aaa bd3e 380d 9ebd
000000c0: 8cff b9be c062 8f3e cae0 653e 8e19 23be
000000d0: aa15 3c3d bf90 8cbd 232a 63be c1e7 dbbd
000000e0: a612 163f fb36 303e b47e 5cbe 5274 63be
000000f0: 3863 e7be 0314 fcbd ae46 183f 4e78 99be
00000100: 9d61 2cbe 80e3 20be 4052 30be f6e5 9cbe
00000110: 0314 233e c0b6 27be 469d 223f 1690 e8be
00000120: bd00 143f e0bd 5e3c 22df c43e 3592 3bbe
00000130: 1206 aebe d489 1fbd 1374 c3be d3d4 fdbe
00000140: 3db1 06bc 0cf5 c43e 4256 6e3e 2535 e43e
00000150: 9a27 0c3e 0e14 0cbf fa8f 573e 8333 9e3e
00000160: 2e28 c63d 9d69 43be 6a61 eebe 2480 0dbe
00000170: c1ee 3d3d 5f62 e4be 2831 a5be d0dd b1be
00000180: 58db 333f 1718 a8bd bc05 463e 67c8 a3be
00000190: eeac 19be ec7e e43e fd8c c6be 79b1 a7be
000001a0: 3932 8c3e 08e9 863e 37c5 15bd 55c6 fabe
000001b0: 5d0c 9d3d f890 e43d 685e 603e e58b 96bd
000001c0: 92f3 40be a23d 403e 4b35 ca3d 41fd 623d
000001d0: de00 e7bd bc55 78bc dda0 95bd 9f85 91be
000001e0: 0cdf 283c bfc2 1cbf ec32 ab3e 89ce d43e
000001f0: 345e bfbe e18f 63bd 1049 f4be e168 e4be
00000200: e049 e9bd 5323 023d 623e 5ebc fee8 803e
00000210: 73d6 aebd a680 d63e f892 bebe 0d11 c0be
00000220: c499 a83d 26da fbbe f096 403e 049f d9bd
00000230: 1e36 053f fa99 433d 9070 65bd cb5a 993e
00000240: 7581 2dbe 3ebe 663e caca 10bf 7dc4 923e
00000250: 0483 803d 5ecf ac3e 9af5 21bf 72d5 17bf
00000260: a978 ffbd b916 b83d 626e 8e3d 31ca 223f
00000270: e9a0 0bbf b83e 243e 73e9 13be f69e a83e
00000280: f24e d2bd 1bba f8be bd0c e3bd 6ef2 933e
00000290: e80f 263e 0fb7 ad3e c86a 9fbe 6e73 3abe
000002a0: 30b5 a63e d6b4 09bf 14e7 7bbe b3c9 85be
000002b0: 05e0 34be b244 053f 5e75 513e 86bc 09bf
000002c0: e99a 373e 2074 1cbf 9765 aabb c40b 873d
000002d0: 783b fabc ed30 673e 96eb b03e 3736 87bc
000002e0: deb2 ba3e ecf1 b73e b07e c83d 4f2c 973c
000002f0: faf2 0f3f ec4a a3ba b080 6bbe c6aa 883e
00000300: 6038 e8bd 982d 06bf fafe d1be 91b1 99bd
00000310: c06d 48be 7225 9dbd ae33 483b 608f 4ebe
00000320: b502 41be f447 53be 2077 013f e699 77be
00000330: f830 85bd fe5d b03e 85c6 983e dbc5 853e
00000340: 0ed3 b93d 0517 b6be 8ae6 e9bd bdcc c4be
00000350: 4c81 6abe 05a4 933e fc47 af3e e63a 3dbe
00000360: a9c9 013d 65e2 3dbd 4dbc 693e 6d70 bfbd
00000370: ce4f 233e 9436 70bd 8633 ab3e d872 013f
00000380: 13d8 47be a5f0 b83e 2c30 d33c 69bc f9be
00000390: 767e a53e 50d4 66be 34ae b2be b4be 63be
000003a0: 6145 153e 1dec 56bc acee 2cbf 6799 b83e
000003b0: 26c8 5cbe d679 203d 86ed 9bbe c4f9 e4be
000003c0: 0fdc 3a3e 0ff7 a9be 01f2 103f 4bfe 2fbd
000003d0: 06e8 d6be 613f 8bbb 63ff 163e 5e51 25bf
000003e0: 1d21 4dbe 9270 01bf 1aa8 8b3e 589f 16bf
000003f0: b1d7 f2bd d2e3 8b3e a514 4abe d722 b5be
0.48642713 -0.078972176 -0.3729136 0.03806712 0.09366949 -0.2000706 -0.24943005 -0.31997305
-0.45282036 -0.38322976 -0.048188675 -0.43238974 -0.43912262 0.264112 -0.50376517 0.36221078
-0.43078712 -0.015031072 -0.08224265 0.004951012 -0.20075618 0.1757754 0.043591335 0.16479655
0.18415481 0.44706574 -0.22022165 -0.10194001 -0.26531586 0.044405166 0.53378874 0.3788446
-0.3472527 0.19562794 -0.42072076 0.07867979 -0.43602175 -0.48663047 0.5891278 -0.38595212
-0.22302137 0.026014542 -0.15941723 -0.41609946 -0.24302441 0.4053707 0.3704422 -0.07717365
-0.3632778 0.28005028 0.22449031 -0.15927717 0.045919098 -0.068635456 -0.22184043 -0.10737563
0.58622205 0.17208473 -0.21532708 -0.22212341 -0.45192885 -0.123085044 0.5948285 -0.29974598
-0.16834112 -0.15711784 -0.17218876 -0.30644196 0.15925603 -0.16378307 0.6352123 -0.4542243
0.57813627 0.013595074 0.38451487 -0.18317492 -0.33989006 -0.038949803 -0.38174495 -0.49576434
-0.008220968 0.38468206 0.23275092 0.44571796 0.13686982 -0.547181 0.21051016 0.30898675
0.096756324 -0.19083257 -0.46558696 -0.13818413 0.04637027 -0.446063 -0.32264066 -0.34739542
0.70256567 -0.0820772 0.19338125 -0.31988832 -0.15007374 0.44628084 -0.3877944 -0.32752588
0.27382067 0.26349664 -0.03656503 -0.4897944 0.07668374 0.11160463 0.21911013 -0.073509015
-0.18842915 0.18773511 0.09873446 0.055417303 -0.11279462 -0.015157159 -0.07306073 -0.28422257
0.010307085 -0.6123466 0.33437288 0.41563824 -0.3737656 -0.055557135 -0.47711992 -0.44611266
-0.11391044 0.03177197 -0.013564678 0.2517776 -0.08536997 0.41895026 -0.37221503 -0.3751301
0.082324535 -0.49189872 0.18807578 -0.10626033 0.520357 0.047754265 -0.05601555 0.29952082
-0.16943915 0.22533509 -0.5655943 0.28665534 0.06274989 0.3375196 -0.63265383 -0.59310067
-0.12474186 0.08988709 0.069546476 0.6358977 -0.54542404 0.1603955 -0.14444523 0.32933778
-0.10268964 -0.48579487 -0.11086414 0.28895897 0.16217005 0.33928725 -0.31136155 -0.18208095
0.3256011 -0.5379156 -0.24599868 -0.26130447 -0.17663582 0.52057946 0.20454928 -0.5380329
0.17930187 -0.6111469 -0.0052000987 0.06594041 -0.030545935 0.22577257 0.34554738 -0.016505344
0.3646459 0.3592676 0.09789789 0.018453745 0.5623013 -0.0012458242 -0.22998309 0.2669279
-0.11338878 -0.5241332 -0.41014844 -0.07504571 -0.19573116 -0.07673158 0.0030548382 -0.2017188
-0.18848689 -0.20632917 0.50572395 -0.24179801 -0.06503481 0.3444671 0.29838958 0.26127514
0.090734586 -0.35564438 -0.11420925 -0.38437453 -0.22900885 0.28836074 0.34234607 -0.18479499
0.03168646 -0.046358485 0.22825737 -0.093476154 0.15948412 -0.0586458 0.33437747 0.5056586
-0.1951602 0.36121097 0.025779806 -0.48776558 0.32323045 -0.22541928 -0.3489853 -0.22240716
0.14577247 -0.013117817 -0.67551684 0.36054537 -0.21560726 0.03917869 -0.30454654 -0.44721806
0.18248008 -0.33196303 0.5661927 -0.042967122 -0.41973895 -0.0042494987 0.1474586 -0.6457728
-0.20032163 -0.50562394 0.2727669 -0.5883689 -0.11857546 0.2732225 -0.19734438 -0.35378143

context_encoder_1/feature_group_encoder_3/conv1d_6/Conv1D f4 [16, 1, 4, 4]
00000000: 7ef6 843e 1c1c 943d e6a7 943d 797e d93d
00000010: fa0f 013e e882 14be d4be 9d3d 5ff7 253e
00000020: b4dc a63c d8b0 683c 8d37 e5bd c78a 243e
00000030: c6cc 643e 2dde 1ebd c6f8 59be 0f1c 7d3e
00000040: 92f6 82bc 36bb 6fbd e9ae 353d de93 4e3e
00000050: e1e5 d3bc 8a80 9d3d 0988 32bd 1f7f 85be
00000060: 9001 fdbc 5a78 26be 8d86 243e 82f5 40be
00000070: 28b8 e9bb a9d9 8a3c e818 08be 7f07 dbbc
00000080: 1831 22bd b128 543e b574 913d d8f5 1f3c
00000090: 28a3 393d 14f8 87bc c302 383e 4c2f 48bc
000000a0: 3ae5 51bd 9361 83bd 52f7 36be 3fe2 0f3e
000000b0: d99a 513e 1d4c 38be 29bf 43be 6dbd 6c3d
000000c0: 8030 a33d b38a 3ebe ced4 72be b4fc ce3d
000000d0: ca2f b4bd 2520 3e3e 6936 2ebe 942f 0c3e
000000e0: 3055 0d3e 72e1 c8bd 26ea 313d b945 463e
000000f0: 6c5d 2e3e b5dc 353c 1694 163e 8e03 203e
00000100: 9b85 36be 69d3 a03d 0007 813e c0cc 17be
00000110: 7049 f93d 374f a4bd 2f64 a8bc 5fad 883d
00000120: 35a8 203d f932 0a3e 6ce2 8e3d d5d4 50be
00000130: fbe8 cc3d 9fcd 933c 29e7 be3d 8b51 133e
00000140: c151 233c 38e4 0a3e 3271 fdbd ebea 1d3c
00000150: 9eb7 11bd a369 73bc 1b61 6c3e c193 66be
00000160: 29fa 49be c221 74be d21a 8dbe dcd5 8d3d
00000170: 4190 803e 6bea bbbc 88fb 40be 4256 963d
00000180: ba24 c5bd 3588 43be 1dfc 77be bf16 5bbe
00000190: 86ce 30be cbfb 45be 365c 38bd ef85 59be
000001a0: 8a1e 29be 5b35 2d3e b233 07be 86eb 20be
000001b0: eb95 853e eeee 63bd b15e 1dbd 2f8d 77bd
000001c0: 7493 7c3e a906 bc3d ffca 27be a09b 7bbe
000001d0: 0939 40bd 4145 0d3e c356 3fbe 24a0 27bd
000001e0: 312c 57be f7cb 82bc 7d16 adbd cace 9abd
000001f0: 6fa3 673e b9bc 303e f785 60be 0ce2 833e
00000200: 2687 4cbd f64b 7bbd 652e 75bc ad87 633d
00000210: 1582 6b3e 4d06 79be 16b9 3b3e 9653 fe3a
00000220: bc52 01be 8cc4 403e 807e babd a5cf 233e
00000230: 0920 093e f9e8 37bd e27b 8d3d 5427 103e
00000240: 3b26 e63c 9494 8dbd e747 7f3e b324 60be
00000250: 211b b03d b0ce 583e a7bd 043e a989 0bbe
00000260: c856 e5bc ae47 bebd 0cf3 f6bd a95e 76be
00000270: d90b ffbd ad92 d83d 02cd f93d 2741 78be
00000280: 69b1 38bd 1274 173e 6ff1 e7bd ead3 3f3e
00000290: 5403 56be 3a07 fb3d 543b 59be 8c4a b03d
000002a0: f50b 6ebe 5b04 4c3e 7c27 e4bc a71a 5cbd
000002b0: 61c4 573e 881c 83be 6904 3d3e 0c8c ae3c
000002c0: 5139 2dbe 6ede 4abe 2b56 64be 8800 33be
000002d0: 67a7 08bd d56e 093e 2b12 c43b 3cbe ffbd
000002e0: 075e 8ebc 9acf 2bbe b525 9fbd 0708 c0bc
000002f0: 9f33 9e3b 1cc0 053e 226d 413e b30a 03be
00000300: 5a22 293e a39c 743e bb24 a7bd e312 7c3e
00000310: de89 053e b210 663c 5a06 bd3d bafc 6a3e
00000320: fc7d 283e decb debd 736f 9c3d a60f 0e3e
00000330: 6360 033e 707e 40be 78ef ab3d 45a2 01be
00000340: c8a5 83be f9ad 993a 75f7 26be 2878 85be
00000350: ec3f 2dbe b958 c83d f221 53be 17b6 fe3c
00000360: 65c6 973d 9cb8 433d f2d8 5abd 4429 61be
00000370: c4ee 99bd 29cc 58be cba1 45be 5121 123e
00000380: 8fac 1ebe c0f7 5e3d 4dd4 30bc d526 e0bd
00000390: 2434 b83d dc19 653e 5e04 6f3e cc52 87be
000003a0: 6988 6ebe 5c6c c5bd 5fc5 0ebe 9074 853e
000003b0: d3e7 a4bc 369d 173e 032e 4cbe 7093 87be
000003c0: 679a aa3d d4dd 693e b138 d03b 9387 963d
000003d0: 1435 32be 7e8f 23be ae30 dd39 6eb4 a2bc
000003e0: c0bc 11be 3f67 50be 161f 05be a4dd 633c
000003f0: 3b03 153d 65cf 703e 6ff0 1a3e 1fed 8ebb
0.2596931 0.07231924 0.072585866 0.10619826 0.12603751 -0.14503062 0.07702413 0.16207646
0.020368911 0.014202319 -0.11192236 0.16068564 0.2234374 -0.038786102 -0.21286306 0.24717735
-0.015986715 -0.058528148 0.04435626 0.20173594 -0.02586645 0.076905325 -0.043586764 -0.26073548
-0.030884534 -0.16256848 0.16066952 -0.18843654 -0.007132549 0.016949492 -0.13290751 -0.026736973
-0.0395976 0.20718648 0.07102338 0.009763204 0.045321614 -0.016597785 0.17969804 -0.012218308
-0.051243998 -0.06415095 -0.17867783 0.1405115 0.20469226 -0.17997785 -0.1911589 0.057797838
0.07968235 -0.18607597 -0.23713991 0.10106793 -0.087981775 0.1856695 -0.17012943 0.13690025
0.13802028 -0.09808625 0.043436192 0.19362535 0.17027825 0.011099984 0.14704928 0.15626356
-0.17824404 0.07852823 0.25200653 -0.148242 0.1217221 -0.080229215 -0.020555584 0.06673693
0.039222915 0.13496007 0.0697678 -0.20393689 0.10005375 0.018042384 0.09321434 0.14386575
0.009968222 0.13563621 -0.12375106 0.009638528 -0.0355755 -0.014856729 0.23083918 -0.22517301
-0.19724335 -0.23841003 -0.27559525 0.06925556 0.25110057 -0.022938928 -0.18845952 0.07340671
-0.09626146 -0.19094928 -0.24217267 -0.21395396 -0.17266282 -0.19334333 -0.045009814 -0.21242498
-0.16515556 0.16914885 -0.13203314 -0.15714845 0.2609094 -0.055647783 -0.038420383 -0.060437378
0.24665624 0.09180958 -0.1638603 -0.24571085 -0.046929393 0.1379595 -0.1868544 -0.040924206
-0.21012951 -0.015966399 -0.08451555 -0.07558973 0.22620939 0.17259492 -0.21926104 0.25758398
-0.049933575 -0.06135174 -0.014964675 0.055549312 0.22998841 -0.2431881 0.18332323 0.0019403573
-0.12629217 0.18824977 -0.09106159 0.15997179 0.13391127 -0.044899914 0.069083944 0.14077502
0.028094402 -0.06913105 0.24929772 -0.21889 0.085989244 0.21172595 0.12962972 -0.13626732
-0.027995482 -0.092910156 -0.12058076 -0.24059547 -0.12453432 0.10574851 0.12197305 -0.24243604
-0.045091067 0.14790371 -0.11325347 0.18733183 -0.20899707 0.12257238 -0.21214038 0.08607969
-0.23246749 0.19923536 -0.027850859 -0.053736355 0.21071006 -0.25607705 0.18458714 0.021307014
-0.16916396 -0.19811413 -0.22298495 -0.17480671 -0.033362772 0.13421185 0.005983611 -0.12487456
-0.01737882 -0.16778412 -0.07770864 -0.023441328 0.004827931 0.13061565 0.18889287 -0.1279705
0.1651701 0.23887877 -0.08161303 0.2461658 0.13040873 0.014042066 0.09229727 0.2294797
0.16454309 -0.10878728 0.07638445 0.13873157 0.12829737 -0.18798232 0.083952844 -0.12659557
-0.2571242 0.0011724822 -0.16305335 -0.26068234 -0.16918916 0.097825475 -0.20618418 0.031092687
0.07410888 0.04778348 -0.05342955 -0.21988398 -0.07516244 -0.21171631 -0.193 0.14270522
-0.15495513 0.05443549 -0.010792804 -0.109449066 0.0899432 0.22373146 0.2334151 -0.26430357
-0.23294224 -0.096398085 -0.13942479 0.26065493 -0.020130074 0.14806065 -0.19939427 -0.26479673
0.08330231 0.22838527 0.0063544144 0.073500775 -0.1740306 -0.15972707 0.00042188674 -0.019861426
-0.14232159 -0.20351885 -0.1300014 0.013907824 0.036380034 0.23516615 0.1513078 -0.004361763

context_encoder_1/feature_group_encoder_3/conv1d_7/Conv1D f4 [32, 1, 4, 16]
00000000: 8ad2 993d 1e29 b43d ea9a 00bd a3c1 47bd
00000010: f5bf 233e 1937 c73d 4baf f53d 9abe 7ebd
00000020: e5b4 29be c5ae 80bd 195e 4fbd 4190 0e3d
00000030: 3cfe 26bd 786a 13be bcfa b4bd f5f7 be3d
00000040: 25a4 c6bd 7262 0cbe 8951 e6bd 8e09 d63d
00000050: 4010 883d 29ae 303c f450 163e 8062 e5bd
00000060: 635f c9ba ae10 923c 4995 893d 7ea5 8fbd
00000070: e9f1 adbd 527b 2b3d 4a82 44bd d4ce 203e
00000080: ae98 98bd 25ab c5bd 089e 2e3e 352b 0bbe
00000090: a1a1 0b3e 0671 be3d 6e51 bbbd 0139 03be
000000a0: 07df 27bd 1ed2 0a3e 144e 31be c5a4 75bd
000000b0: 5e9e 633d 5150 363d 0339 1e3e 6ff8 583c
000000c0: b10f 25be 4107 12be 7c5c 1f3e a280 3bbd
000000d0: 34ba 213e a650 34be 2469 8cbb 9912 bbbc
000000e0: 674d cebd 045a acbd ddba fb3d 6497 d2bd
000000f0: 5521 f2bd faf8 f53d 6d9e 463d b81a 86bc
00000100: 9310 4cbc bf68 a338 dff0 d7bc 0ae9 2b3d
00000110: 7750 193e dee0 053e 27ec 6ebd eb5c cabd
00000120: 31d8 823b e515 9fbc 3a75 2cbe 7d49 1cbe
00000130: 9581 bb3d 5898 15be 0c9e 053e fded c6bd
00000140: 4aca 14be 30a7 403b ab57 babd b4db 2b3e
00000150: fb3e 8d3d c5ca ddbd 0f5a 113e e4f2 273e
00000160: 09e3 813d f219 353d 69a7 85bd 0947 14be
00000170: d575 b9bd e726 cabd 6d9f 00be 8f7b 273e
00000180: d60c c7bd 51a4 c5bb 30d7 94bd 948b ffbd
00000190: c8dc 01bd 0a18 3dbb e37b 8cbd 88e3 2a3e
000001a0: c3ad 86bd ea21 9fbc 544a 553d 2878 943d
000001b0: e8c7 ba3d 2f4f f8bd 09bf 2c3e e17d 28bd
000001c0: 79a3 9b3d b9bd 1ebd 9262 043e 6c2f e63d
000001d0: 1617 cb3d 89fb da3b 0ca1 c83a dc61 383d
000001e0: f323 113e f5c4 aa3d bfd8 e13d 3d1b d1bd
000001f0: fa2e b53c 37bb 073e 2cc0 5d3d f661 5ebc
00000200: 9e8b e33c e5b4 1c3e d3ef 2dbd 48f9 143e
00000210: 32ac 6ebd 7ea7 9b3c 9755 cdbd 0e61 b53c
00000220: f6e9 99bd 0de2 ec3d 393c 00be a25a 333e
00000230: 0d8d 04be 068e c9bc 42dc dd3c 8868 cbbd
00000240: 3731 a5bd e3b3 cf3a dac1 9bbd 26ee eb3b
00000250: 796c 193d 4288 01be df16 32be befb 303e
00000260: 8826 213e 92e9 20bd 4c32 3ebd 65d9 a43d
00000270: a493 03be f921 803d 1eba 1fbe 80cc 43bd
00000280: 5376 173e bd4f 133e 73ca 08be 08a9 15be
00000290: 150d a13d ca0a 303d 005a 833d ea97 243d
000002a0: 80a2 343e 210f a5bd 5dbc 0dbe bfa9 59bc
000002b0: c3bb 25be b24a 263d 35be 0dbe 09dc e03d
000002c0: ba6b b23d 8021 f0bd ee51 c53c d454 b13d
000002d0: 76fc 13bd cbc3 0e3c 0dcc cb3d 9600 d5bd
000002e0: 362d 313e 157e ceb9 65de d1bd e863 b23d
000002f0: d1a5 2fbe 33e4 1ebe b743 0a3e 2cd4 e93c
00000300: ac6b a2bd 69f3 1c3e b47f 8cbb 8baf 0b3e
00000310: 1b54 953c 3a33 d33d 3ee8 333c fdcc bcbd
00000320: eef5 0a3e d0a7 c0bd 0a01 a63d 0011 22bd
00000330: 8152 103e 47de fcbd 2df2 27be b875 283e
00000340: 0938 313e ff32 12be ab2e f43d 242d 13be
00000350: cf89 ef3b 3f91 febd cb97 0c3e c1fe bdbc
00000360: d47c c5bd 2b2b d7bd 21fd 16be 3adf ea3d
00000370: 4a75 583d c5fc 2ebd 2a39 3cbd 1a7c 953d
00000380: 70b8 a73d 7ca4 f63c 2b21 c1bd f6b9 d73d
00000390: 1e9b 94bd 1e02 f1bc 5133 1d3d 3b59 b03d
000003a0: 5519 d8bd 0f99 e53d 7960 073e 55bc ec3d
000003b0: 8ba7 423d bd11 ce3c 67e2 d4bd a984 b43d
000003c0: 22dc 073e ce18 213e 3b97 8a3d 8ccb 853d
000003d0: 11c9 e0bd 8845 fe3d 5d49 e9bb 5087 7e3d
000003e0: f5b6 bbbd fa9b 19be 4cd7 0bbe 01ea 823d
000003f0: 77bf e1bd 3f39 1dbe 0c2e 9b3c a9d0 db3d
0.0751086 0.08796905 -0.031397738 -0.04876865 0.15991195 0.09727306 0.11996325 -0.06219349
-0.16572912 -0.06283335 -0.050626848 0.03480554 -0.0407698 -0.14396083 -0.08836886 0.09324638
-0.09699277 -0.13709429 -0.1124602 0.10451041 0.066437244 0.0107837105 0.14679319 -0.11200428
-0.001536351 0.01783022 0.06717927 -0.07013987 -0.08493406 0.041865654 -0.047975816 0.15703899
-0.07450996 -0.09651784 0.17052472 -0.13590701 0.13635875 0.09298901 -0.09146391 -0.12814714
-0.04098418 0.13556716 -0.1731494 -0.05997159 0.055570953 0.04451019 0.15451436 0.013242825
-0.16119267 -0.1426058 0.15562624 -0.04577697 0.15793687 -0.1760889 -0.0042849947 -0.022836016
-0.10073357 -0.084156066 0.12291501 -0.10282782 -0.11822764 0.12010379 0.04849093 -0.016370162
-0.0124551235 7.791956e-05 -0.026359973 0.04197029 0.14972101 0.13074061 -0.05833068 -0.09881004
0.003993057 -0.01941962 -0.16841593 -0.15262409 0.09155575 -0.14608896 0.13048571 -0.097133614
-0.14530292 0.0029396527 -0.090987526 0.16783029 0.06896778 -0.10829691 0.14194511 0.16401249
0.06342132 0.044214197 -0.065260716 -0.14480223 -0.09055678 -0.09870701 -0.12560816 0.16355728
-0.09719245 -0.006031551 -0.07267606 -0.12477794 -0.031704694 -0.002885344 -0.06859567 0.16688359
-0.06576111 -0.019425351 0.052072838 0.072494805 0.0912016 -0.12124478 0.16869749 -0.041135672
0.07599539 -0.038755152 0.12928227 0.11239514 0.09916513 0.0066828174 0.0015306785 0.0450152
0.1417387 0.08338348 0.11027669 -0.102102734 0.022117127 0.1325501 0.054138348 -0.01357316
0.027776536 0.15303381 -0.042465042 0.14548218 -0.058269687 0.019000765 -0.100260906 0.022141006
-0.07515328 0.11566553 -0.12522973 0.17515042 -0.12944432 -0.024603855 0.027082566 -0.09932047
-0.080660276 0.0015846457 -0.076053336 0.0072000204 0.037456963 -0.12649634 -0.17391537 0.17283532
0.15737355 -0.03928525 -0.046434686 0.08049277 -0.12849289 0.0625648 -0.15598342 -0.04780245
0.14791231 0.14385886 -0.13358478 -0.14615262 0.07863823 0.04297904 0.064136505 0.04018394
0.17640114 -0.08059526 -0.13841386 -0.0132850995 -0.16184907 0.04059858 -0.1384209 0.109794684
0.087119535 -0.117251396 0.024086919 0.08658758 -0.036129437 0.008713673 0.09951029 -0.104005024
0.17302403 -0.0003938532 -0.102474965 0.08710462 -0.17153098 -0.15516739 0.13502394 0.028543554
-0.07930693 0.15327229 -0.0042876843 0.13641183 0.018228581 0.10312505 0.010980664 -0.09218786
0.13570377 -0.09407008 0.08105667 -0.039566994 0.14093973 -0.123470835 -0.16400976 0.16451156
0.17306532 -0.14277266 0.11922964 -0.14372689 0.0073101292 -0.12430047 0.1372978 -0.023192765
-0.0964295 -0.105062805 -0.14744999 0.11468358 0.05284623 -0.04272153 -0.045952953 0.07299061
0.081894755 0.03010773 -0.094301544 0.10533516 -0.07256149 -0.029419955 0.038379017 0.08610769
-0.10551707 0.11210834 0.13220395 0.11559359 0.047523063 0.025154943 -0.10394745 0.088143654
0.13267568 0.15732118 0.06767126 0.06532964 -0.109758504 0.12415606 -0.0071193413 0.062140763
-0.09165756 -0.15000907 -0.13656348 0.06392289 -0.11022847 -0.15353869 0.018942855 0.10733158
